rbc_nn.pt (torch, 49279 bytes, 7 tensors)

network.0.weight f4 [128, 7]
0.28981006 0.31820807 -0.09784936 0.34927854 -0.08035929 0.07945769 -0.18072885 0.22500977
0.32433492 -0.27954152 0.32646263 0.06286833 0.27128676 0.04436511 0.19811514 -0.06392397
0.32025263 0.103669144 -0.18427649 0.09703176 -0.17805889 -0.17836548 -0.17154673 0.2053337
-0.22116429 -0.1821207 -0.11147678 -0.23928204 -0.0023486826 -0.34489754 0.32490253 -0.36949846
0.30691126 0.07173054 -0.102544 0.20351847 0.06555604 0.28051144 0.00997188 -0.11469062
0.10162185 -0.09808485 0.13551372 0.35519528 0.18829699 -0.20538874 0.22820984 0.07532875
0.19602787 -0.631048 -0.29820186 -0.3210857 -0.18183844 0.30533493 0.10862153 0.19171707
0.1101821 0.0034300399 0.29666206 -0.2882901 0.03143885 -0.25039992 0.123983905 -0.1645443
0.1323212 -0.06783004 0.32146427 -0.22655962 -0.22528735 -0.22486788 0.2102897 0.11978931
0.3296367 -0.24266414 -0.38378242 -0.30651793 -0.25811458 0.21430291 0.12546088 0.39719707
-0.11093074 -0.26461822 0.19999297 -0.1541685 0.2410453 -0.09697779 0.23261842 -0.26001555
-0.19675085 0.11165245 0.07840965 -0.07389282 0.20887539 0.25796422 -0.24282303 -0.20631848
0.3393996 -0.13537386 -0.14727362 -0.35354173 -0.22559796 0.11104389 -0.04501392 -0.26770633
0.015639408 -0.3323723 -0.2877051 -0.23166595 -0.3301498 -0.22984035 0.3838034 0.08898992
0.11786267 -0.36278844 -0.22028616 -0.08927173 0.056715284 -0.33310708 -0.15849814 -0.17054579
0.012291892 -0.12998521 -0.033281703 -0.2449665 -0.24875325 -0.2119493 -0.18711205 -0.28681427
0.27186096 -0.09981127 0.3396226 0.12855467 -0.31198606 0.2334545 -0.11837199 -0.10291459
-0.19074006 -0.39347512 0.10692999 -0.07856625 0.19588977 -0.32568842 0.29722878 -0.23009488
-0.046809778 0.088676386 0.22182423 0.33038875 0.33468005 -0.29669282 0.103938006 -0.1706907
-0.04718466 -0.2901592 0.20609501 -0.327787 0.19719197 0.1613913 0.10060807 -0.22243643
0.3684572 -0.111967236 0.060297254 -0.4384172 0.13435858 -0.035486404 -0.14954862 0.32433602
-0.064657174 -0.22996269 -0.042142257 0.033093065 0.18713263 -0.08858943 -0.22008343 0.08420911
-0.34158748 0.17417878 0.35084307 -0.39670077 0.06599767 0.18330629 0.074263364 -0.12601164
0.21721292 0.20509106 0.1465574 -0.059663255 -0.09454955 -0.005618073 -0.08163764 -0.17889668
0.22401592 0.3182562 -0.04946542 -0.0966156 -0.062210683 -0.029951897 0.06113006 0.09489271
-0.35800123 -0.14890428 0.3090734 0.14034785 -0.025230711 -0.2213767 -0.19422415 -0.34753963
-0.13147396 0.12618214 0.2996242 0.18958834 -0.39667916 -0.26555014 -0.054226197 0.3667268
0.04216414 -0.04793643 0.15266287 -0.14160736 -0.25637108 0.27565593 -0.17125346 -0.078819096
-0.44856405 0.27330032 0.30029795 0.16232169 -0.25489622 -0.36330858 -0.3016281 0.33858672
0.15607728 0.437572 0.30497643 0.080046296 -0.002666985 -0.27721912 -0.2207503 -0.32318908
0.20437394 -0.1991766 -0.07216543 -0.21369334 -0.062552616 -0.25276458 -0.23863907 0.14423417
-0.10680337 0.24380937 -0.10926143 -0.2700916 -0.019696003 -0.19082564 -0.12211053 -0.36389017
00000000: fc61 943e 2bec a23e 3f65 c8bd a3d4 b23e
00000010: 6993 a4bd b7ba a23d fc10 39be f668 663e
00000020: 3a0f a63e 1120 8fbe 1c26 a73e 1cc1 803d
00000030: 19e6 8a3e 31b8 353d b2de 4a3e 92ea 82bd
00000040: 27f8 a33e 7d50 d43d fab2 3cbe 96b8 c63d
00000050: 1255 36be 71a5 36be f2a9 2fbe ff42 523e
00000060: e478 62be d97d 3abe f04d e4bd 5a06 75be
00000070: 5bec 19bb 6996 b0be a059 a63e e72e bdbe
00000080: 7923 9d3e 76e7 923d 9702 d2bd 2567 503e
00000090: 3f42 863d 329f 8f3e 1961 233c eae2 eabd
000000a0: 1e1f d03d b6e0 c8bd 1cc4 0a3e 28dc b53e
000000b0: edd0 403e 6d51 52be d7af 693e f645 9a3d
000000c0: 88bb 483e 5d8c 21bf eaad 98be 5865 a4be
000000d0: db33 3abe dc54 9c3e f774 de3d 7b51 443e
000000e0: 27a7 e13d 85ca 603b 17e4 973e c39a 93be
000000f0: 06c6 003d 6b34 80be 46eb fd3d 4d7e 28be
00000100: 357f 073e 7aea 8abd f796 a43e 3fff 67be
00000110: bab1 66be c443 66be 2f56 573e 1954 f53d
00000120: 24c6 a83e f37c 78be 217f c4be ebef 9cbe
00000130: 9827 84be 3972 5b3e d178 003e 6a5d cb3e
00000140: a82f e3bd 0a7c 87be f5ca 4c3e 59de 1dbe
00000150: 94d4 763e 4b9c c6bd 8633 6e3e c220 85be
00000160: 0e79 49be 0aaa e43d 3d95 a03d 1e55 97bd
00000170: 6ee3 553e e313 843e 9aa6 78be 2745 53be
00000180: c9c5 ad3e 729f 0abe e5ce 16be 6c03 b5be
00000190: 2703 67be fb6a e33d 8460 38bd ce10 89be
000001a0: 371e 803c b42c aabe 154e 93be d739 6dbe
000001b0: 6509 a9be 455b 6bbe e181 c43e 5940 b63d
000001c0: fc61 f13d 68bf b9be b292 61be 19d4 b6bd
000001d0: 494e 683d 038d aabe 564d 22be 8ea3 2ebe
000001e0: ef63 493c d81a 05be 6552 08bd 80d8 7abe
000001f0: 2cb9 7ebe 3d09 59be 4d9a 3fbe 52d9 92be
00000200: 5c31 8b3e da69 ccbd 03e3 ad3e d6a3 033e
00000210: a3bc 9fbe b20e 6f3e 046d f2bd e2c4 d2bd
00000220: 5d51 43be 9275 c9be 1cfe da3d 58e7 a0bd
00000230: 5497 483e a2c0 a6be 5f2e 983e fe9d 6bbe
00000240: 9cbb 3fbd f79b b53d e425 633e b728 a93e
00000250: 2f5b ab3e 1fe8 97be 73dd d43d 8bc9 2ebe
00000260: b444 41bd bf8f 94be 920a 533e b3d3 a7be
00000270: b1ec 493e c343 253e 9b0b ce3d 60c6 63be
00000280: 6ca6 bc3e 144f e5bd 41fa 763d 3878 e0be
00000290: 4c95 093e 315a 11bd 4623 19be 5f0f a63e
000002a0: fb6a 84bd 577b 6bbe 5c9d 2cbd 988c 073d
000002b0: b29f 3f3e 606e b5bd 8d5d 61be d375 ac3d
000002c0: 8ee4 aebe ec5b 323e b4a1 b33e 5d1c cbbe
000002d0: c929 873d a5b4 3b3e 6417 983d 3209 01be
000002e0: 106d 5e3e 6403 523e 2513 163e 7561 74bd
000002f0: 32a3 c1bd d017 b8bb a331 a7bd b130 37be
00000300: 6e64 653e 7af2 a23e 419c 4abd 66de c5bd
00000310: a1d0 7ebd ae5d f5bc 8463 7a3d 1c57 c23d
00000320: f04b b7be 5d7a 18be de3e 9e3e 59b7 0f3e
00000330: a3b0 cebc 93b0 62be b2e2 46be b7f0 b1be
00000340: 1ca1 06be e435 013e 5868 993e 7223 423e
00000350: 8819 cbbe 30f6 87be 4a1c 5ebd 9dc3 bb3e
00000360: 4eb4 2c3d fd58 44bd a853 1c3e 8501 11be
00000370: 1243 83be c622 8d3e 115d 2fbe e86b a1bd
00000380: 30aa e5be 05ee 8b3e a7c0 993e a837 263e
00000390: c281 82be 9503 babe 006f 9abe 3d5b ad3e
000003a0: b9d2 1f3e 7009 e03e df25 9c3e 50ef a33d
000003b0: 95c8 2ebb aaef 8dbe 5e0c 62be 0a79 a5be
000003c0: 6747 513e f3f4 4bbe 78cb 93bd 6dd2 5abe
000003d0: 961b 80bd 5c6a 81be cd5d 74be 1fb2 133e
000003e0: babb dabd 2aa9 793e 75c4 dfbd 7249 8abe
000003f0: 8359 a1bc cc67 43be 1615 fabd d04f babe

network.0.bias f4 [128]
-0.13067184 -0.16321594 -0.0964083 -0.15878332 0.35453755 0.20625566 0.34992662 0.004409312
0.08535076 0.13570465 -0.36690718 0.03708052 -0.029257799 -0.2180086 -0.28520626 0.34398296
0.30448562 0.18576804 0.37196514 -0.15929422 -0.060808036 0.13575284 -0.09056246 -0.06555539
-0.32156232 0.073405884 -0.22116256 0.0014481399 0.35640746 -0.1234287 -0.11749731 0.22779125
-0.1284633 -0.028378727 0.36786214 -0.14479294 -0.28260273 -0.22842155 -0.10871851 -0.17573261
-0.19603373 0.18338074 0.056171134 -0.11122214 -0.30544803 -0.11734876 -0.16444744 -0.1134189
-0.34529632 0.07383676 -0.29043636 -0.28677082 -0.2981063 0.15120317 -0.24144241 -0.15148781
0.3011865 0.16465642 0.20990723 -0.35230163 -0.2749613 -0.15242822 0.30977258 0.04054971
-0.2771305 0.0094478335 -0.28717446 -0.09255918 -0.11079998 0.32458258 0.10723151 -0.0764207
0.042375755 -0.101917945 0.13510099 0.13238917 0.09367054 -0.16092111 0.32981068 -0.053429488
-0.15465707 0.22904535 0.3090035 0.36888576 0.025671586 -0.13865647 0.14011693 0.33183816
-0.36401412 -0.04575946 -0.26133516 0.04873363 0.15591533 -0.07221478 -0.03135329 0.15962897
-0.058535766 -0.33703953 0.2960718 -0.18371205 -0.03100081 0.028002497 -0.017806262 -0.33185738
0.16503574 -0.19421011 -0.20233716 0.1005395 -0.23434722 -0.17642994 -0.13341269 -0.15211642
-0.16026519 -0.10210347 0.080288544 -0.32614446 -0.21730833 0.01164118 0.08102775 0.21933343
-0.28210387 0.12524258 0.20695087 0.20062791 -0.34559032 -0.1552661 -0.3333226 -0.23248015
00000000: d7ce 05be 1422 27be b771 c5bd 1898 22be
00000010: f285 b53e af34 533e 9529 b33e fd7b 903b
00000020: 61cc ae3d 29f6 0a3e 42db bbbe bee1 173d
00000030: 0dae efbc a53d 5fbe 8e06 92be 891e b03e
00000040: 8ae5 9b3e fa39 3e3e 3772 be3e 061e 23be
00000050: d911 79bd cb02 0b3e d078 b9bd e841 86bd
00000060: d1a3 a4be d355 963d 7078 62be 83cf bd3a
00000070: 0a7b b63e 30c8 fcbd 6ea2 f0bd 1c42 693e
00000080: e28b 03be 817a e8bc 6d58 bc3e 9a44 14be
00000090: 4eb1 90be 57e7 69be cfa7 debd 40f3 33be
000000a0: 11bd 48be 29c8 3b3e b413 663d 6fc8 e3bd
000000b0: af63 9cbe 8c54 f0bd e964 28be 2b48 e8bd
000000c0: aeca b0be ba37 973d 13b4 94be a0d3 92be
000000d0: 64a1 98be 01d5 1a3e ae3c 77be 9f1f 1bbe
000000e0: 1e35 9a3e b19b 283e ecf1 563e e160 b4be
000000f0: bac7 8cbe 2516 1cbe 839a 9e3e 7417 263d
00000100: 0de4 8dbe 16cb 1a3c 8808 93be ab8f bdbd
00000110: 1aeb e2bd b02f a63e 329c db3d 7582 9cbd
00000120: 3392 2d3d 5bba d0bd ea57 0a3e 0791 073e
00000130: 57d6 bf3d 81c8 24be f2dc a83e e1d8 5abd
00000140: 6c5e 1ebe dd8a 6a3e b535 9e3e 98de bc3e
00000150: 384d d23c f6fb 0dbe d07a 0f3e b1e6 a93e
00000160: 0f60 babe 466e 3bbd b9cd 85be ea9c 473d
00000170: 45a8 1f3e 58e5 93bd 4f6c 00bd c775 233e
00000180: 33c3 6fbd 7290 acbe b996 973e 031f 3cbe
00000190: 69f5 fdbc 7e65 e53c 70de 91bc 36e9 a9be
000001a0: 21ff 283e 04df 46be 7931 4fbe a7e7 cd3d
000001b0: b8f8 6fbe 0daa 34be 569d 08be 68c4 1bbe
000001c0: 8f1c 24be a01b d1bd 526e a43d 68fc a6be
000001d0: 1386 5ebe a6ba 3e3c e1f1 a53d f198 603e
000001e0: eb6f 90be 973f 003e eeea 533e 6771 4d3e
000001f0: 37f1 b0be 14fe 1ebe 43a9 aabe 470f 6ebe

network.2.weight f4 [64, 128]
0.03055193 -0.009759286 0.026364788 -0.05597751 0.020578807 -0.05578137 0.05209314 -0.027348766
-0.0069329063 -0.09934333 6.389494e-05 0.08660937 0.049056843 -0.033691276 -0.0051498814 -0.0005657148
-0.05469578 0.05951387 0.007236054 0.017791366 -0.06429826 -0.031774122 -0.009028862 0.03777276
0.014786058 -0.13756207 0.067166045 -0.012690353 -0.052800253 -0.04483595 0.12867558 0.017808799
-0.027087256 -0.072841905 -0.016224789 -0.08543172 -0.07629214 0.047585063 0.097954065 0.10256508
-0.07215588 0.041865252 -0.05709523 0.13044348 0.0146925915 0.061653703 0.058369253 0.05670856
-0.003923595 0.029678825 -0.058918305 0.033565193 -0.032663986 0.003934238 -0.10536889 -0.030794641
-0.035890236 -0.04644595 -0.041260887 -0.08149379 0.020274384 0.039415523 0.0947884 0.022117067
-0.049621705 -0.11873967 0.023242822 0.04453145 -0.08296704 0.03464774 0.08061185 -0.12807176
0.1281356 0.06374087 0.038708445 0.067738995 -0.063287996 -0.0016010775 -0.05185267 0.08872433
-0.036905833 0.049230922 0.0138038155 0.02933106 -0.04567044 0.09126487 0.06376457 -0.07246965
-0.044112217 0.10977786 -0.036576696 -0.07571933 -0.018479312 0.0879593 0.096268654 0.031144265
-0.046592813 -0.018813565 0.014800101 -0.055637356 0.070736185 -0.10698622 0.05811345 0.08366926
0.112575166 0.02451684 -0.075211085 0.10540284 -0.034366693 -0.09625317 0.08824789 -0.057018887
-0.029333215 0.06553796 -0.05833292 -0.08295299 0.025023973 -0.004230108 0.009120456 -0.081552245
-0.0013006935 -0.04363348 -0.03756802 -0.069449544 0.033101343 0.017898353 -0.090924606 0.052752115
0.038292177 0.027494516 -0.056011315 0.008133719 0.08025942 0.064115986 -0.06554398 0.07857558
-0.013613829 0.04234854 0.06401159 0.072068 -0.07819818 0.07569514 -0.064339235 0.011146891
-0.06626677 -0.023019139 -0.0063396874 -0.013820046 -0.042430095 0.020064972 0.08244692 0.062305924
0.044384122 0.053820778 0.061138995 -0.0006191284 0.013367419 0.015096141 -0.055067692 -0.068895884
0.006013811 -0.039576355 -0.018178985 -0.027852213 0.004773306 0.072581194 -0.108393304 0.06755482
0.06491557 -0.070398286 -0.07017756 -0.10010527 -0.04584161 -0.05104129 -0.0110014025 -0.02429526
-0.048299182 -0.02729734 -0.03045557 0.08129827 -0.037512034 -0.066429466 0.015882632 -0.007941038
0.073205635 0.04858287 0.08673759 -0.06937642 0.05774216 0.07122018 -0.035328764 0.08526057
0.061281268 -0.006983109 0.03652282 -0.024630984 -0.08242919 0.028059151 0.030832594 -0.065663874
0.08730961 -0.07853807 0.08138616 0.09148315 0.024707116 -0.07883906 0.047073256 0.020425959
0.01978373 0.026306085 0.07356235 -0.0356165 -0.0122584365 0.04997978 0.026497062 0.07511735
-0.049852774 -0.020886203 0.012067588 0.014226712 0.06163213 0.014044115 0.07831655 0.0032951038
-0.037682373 0.013968815 -0.0049391906 -0.08655693 -0.030185906 -0.019533891 -0.033721786 0.07427042
-0.016532153 0.062052205 0.016142916 -0.07219453 0.022076294 0.06865344 -0.06094821 -0.050911896
0.08104072 0.07106843 0.14791502 0.05282918 -0.01898424 -0.09800083 -0.009028505 0.016083384
-0.031110203 0.033586115 -0.071655564 0.06593594 0.07167064 0.06025651 0.010386425 0.026124638
00000000: 0b48 fa3c 6ae5 1fbc f8fa d73c ac48 65bd
00000010: e394 a83c 017b 64bd 9e5f 553d 850a e0bc
00000020: 6f2d e3bb 8474 cbbd 56ff 8538 4160 b13d
00000030: d4ef 483d ddff 09bd 56c0 a8bb 7a4c 14ba
00000040: af08 60bd d1c4 733d 6c1c ed3b 33bf 913c
00000050: ceae 83bd 9525 02bd cbed 13bc 9cb7 1a3d
00000060: 3941 723c 12dd 0cbe 5a8e 893d 33eb 4fbc
00000070: 1445 58bd e7a5 37bd 88c3 033e c2e3 913c
00000080: 18e6 ddbc 232e 95bd d9e9 84bc d3f6 aebd
00000090: 0e3f 9cbd 8ee8 423d 249c c83d a40d d23d
000000a0: 76c6 93bd e67a 2b3d b0dc 69bd fa92 053e
000000b0: 32b9 703c 9888 7c3d 9914 6f3d 3c47 683d
000000c0: 8091 80bb 0221 f33c 5254 71bd a87b 093d
000000d0: acca 05bd c8ea 803b a5cb d7bd 0b45 fcbc
000000e0: a401 13bd 1c3e 3ebd 2d01 29bd 37e6 a6bd
000000f0: 7716 a63c 2c72 213d 6c20 c23d da2e b53c
00000100: 2140 4bbd c92d f3bd bb67 be3c 9c66 363d
00000110: a0ea a9bd caea 0d3d d317 a53d 3e25 03be
00000120: fb35 033e 938a 823d bf8c 1e3d beba 8a3d
00000130: 239d 81bd 3fdb d1ba 7763 54bd 1ab5 b53d
00000140: 922a 17bd 5da6 493d 6629 623c b147 f03c
00000150: ed10 3bbd 13e9 ba3d 0097 823d f86a 94bd
00000160: 03af 34bd 37d3 e03d 72d1 15bd bc12 9bbd
00000170: ed61 97bc 0124 b43d 8028 c53d 4222 ff3c
00000180: 1bd8 3ebd e81e 9abc 1f7c 723c ffe3 63bd
00000190: 22de 903d 971b dbbd 5e08 6e3d ca5a ab3d
000001a0: cf8d e63d 8ad7 c83c 4508 9abd 72dd d73d
000001b0: 17c4 0cbd 6220 c5bd 4fbb b43d a38c 69bd
000001c0: 364c f0bc c438 863d 80ee 6ebd 42e3 a9bd
000001d0: 13ff cc3c b89c 8abb f76d 153c dd04 a7bd
000001e0: 087c aaba 05b9 32bd ede0 19bd 903b 8ebd
000001f0: 4695 073d 919f 923c ae36 babd 9a12 583d
00000200: 42d8 1c3d 2e3c e13c 1f6c 65bd 4a43 053c
00000210: 0d5f a43d 3e4f 833d ec3b 86bd 3cec a03d
00000220: 8a0c 5fbc aa75 2d3d 8218 833d 6398 933d
00000230: 5e26 a0bd 0e06 9b3d 4ac4 83bd 73a1 363c
00000240: dfb6 87bd a292 bcbc 27bd cfbb 796d 62bc
00000250: 2ecb 2dbd 4c5f a43c eed9 a83d 7f34 7f3d
00000260: 20cc 353d 2d73 5c3d e26c 7a3d 014d 22ba
00000270: 0503 5b3c ce55 773c a98e 61bd 4919 8dbd
00000280: 810f c53b d11a 22bd 18ec 94bc 532a e4bc
00000290: 6569 9c3b 73a5 943d 4ffd ddbd 2e5a 8a3d
000002a0: 74f2 843d fa2c 90bd 41b9 8fbd fe03 cdbd
000002b0: 69c4 3bbd ac10 51bd 3a3f 34bc da06 c7bc
000002c0: 5dd5 45bd ac9e dfbc f67d f9bc b57f a63d
000002d0: 38a6 19bd 2c0c 88bd 4b1c 823c 211b 02bc
000002e0: d6ec 953d d5fe 463d 7aa3 b13d 3915 8ebd
000002f0: 0b83 6c3d e3db 913d e5b4 10bd 189d ae3d
00000300: 1102 7b3d 90d2 e4bb f498 153d ebc6 c9bc
00000310: a3d0 a8bd 4edc e53c a394 fc3c c87a 86bd
00000320: 61cf b23d 91d8 a0bd c9ad a63d 855b bb3d
00000330: 9466 ca3c 6076 a1bd e3cf 403d 5754 a73c
00000340: 7d11 a23c dc7f d73c dba7 963d 9be2 11bd
00000350: 9cd7 48bc 99b7 4c3d 5e10 d93c 20d7 993d
00000360: 6c32 4cbd 8b19 abbc 22b7 453c 2817 693c
00000370: f971 7c3d 4a19 663c 6d64 a03d abf2 573b
00000380: d558 1abd 75dd 643c efd8 a1bb c244 b1bd
00000390: 6f48 f7bc 8a05 a0bc db1f 0abd 171b 983d
000003a0: 706e 87bc 742a 7e3d 263e 843c bada 93bd
000003b0: 58d9 b43c 2d9a 8c3d d5a4 79bd fe88 50bd
000003c0: adf8 a53d 538c 913d 0977 173e 6963 583d
000003d0: d684 9bbc a9b4 c8bd 4bec 13bc 4dc1 833c
000003e0: d3da febc 9891 093d 27c0 92bd 6c09 873d
000003f0: 0ec8 923d 88cf 763d d32b 2a3c 5603 d63c

network.2.bias f4 [64]
0.062032767 -0.041174192 -0.0032273952 0.00035050223 0.067616515 0.03301133 0.07776603 -0.041566435
0.0007603243 6.571466e-05 0.077440105 0.07470162 0.033298932 -0.0777143 -0.057986137 0.020285957
-0.07037213 -0.037345685 -0.061844256 0.041171603 -0.013785295 -0.062080283 0.049794942 -0.07736754
-0.015609587 0.091131076 0.03609934 -0.06972135 0.016447466 -0.01891635 0.04538999 0.073999256
0.0823348 -0.015834425 0.03456508 -0.15353934 0.077294365 0.03795823 -0.10347144 -0.018937968
-0.027391076 -0.043850046 0.04371492 -0.051866394 0.028446957 -0.019615198 0.06056757 -0.028538499
-0.02492431 -0.017436905 -0.004184723 -0.035870448 -0.05524261 -0.07640304 0.04494313 0.01726358
-0.06373421 0.04022143 0.0027341591 -0.023464032 -0.014373931 0.004448397 0.07123896 -0.093320034
00000000: 1216 7e3d 45a6 28bd b582 53bb 9dc3 b739
00000010: 877a 8a3d e336 073d cc43 9f3d 9141 2abd
00000020: 8050 473a 4ad0 8938 eb98 9e3d 2afd 983d
00000030: 7664 083d ad28 9fbd df82 6dbd bc2e a63c
00000040: 431f 90bd caf7 18bd 6750 7dbd 8ea3 283d
00000050: b8db 61bc e547 7ebd c8f5 4b3d df72 9ebd
00000060: 5abf 7fbc eea2 ba3d e7dc 133d 11ca 8ebd
00000070: d6bc 863c 76f6 9abc dbea 393d ec8c 973d
00000080: 269f a83d 32b7 81bc 1d94 0d3d 6b39 1dbe
00000090: 824c 9e3d 177a 1b3d d6e8 d3bd cc23 9bbc
000000a0: 4063 e0bc 1b9c 33bd 6a0e 333d db71 54bd
000000b0: 9809 e93c 0db0 a0bc b315 783d 92c9 e9bc
000000c0: 112e ccbc d7d7 8ebc 0020 89bb e4ec 12bd
000000d0: 1346 62bd 3279 9cbd 4a16 383d 5a6c 8d3c
000000e0: 1587 82bd 3abf 243d 942f 333b a437 c0bc
000000f0: a380 6bbc dcc3 913b bbe5 913d 931e bfbd

network.4.weight f4 [32, 64]
-0.108148895 -0.0766882 -0.10908856 0.0059099933 0.059995387 0.008457328 0.047524154 0.015464696
-0.010903665 -0.11250266 0.11684975 0.13078131 -0.01690814 0.03248725 0.03172513 0.11551757
-0.010887538 -0.029790627 -0.06009214 0.025463477 0.08111014 -0.10549886 0.043639787 0.03598506
0.052576143 0.057123486 -0.041671537 0.020975878 -0.095133364 0.06888637 -0.112045154 -0.10062185
-0.08513369 -0.077816755 0.0025634067 0.13494141 -0.019273797 0.09979031 9.563306e-05 0.11311773
0.12084991 0.08482121 0.03919033 -0.05462721 0.1349028 -0.11072819 -0.06956159 -0.046386592
-0.023017203 0.046390273 0.023283554 -0.110126406 0.12628746 0.11362672 0.011806148 -0.123605296
0.11479399 0.057225697 -0.0072488575 -0.09728157 0.08585315 -0.018838478 -0.107976675 0.12199385
0.034378927 0.04842049 0.06883386 0.045971785 -0.038434476 -0.024843674 0.09747652 -0.010747859
-0.11458075 -0.08469249 -0.10346595 0.0236341 0.071185075 0.08646076 0.03789768 0.03194436
-0.0723687 0.114519574 0.048766106 -0.0864985 -0.0626049 -0.120442644 -0.035485994 0.094711505
0.0016279904 -0.06194171 0.026836805 -0.08141453 0.020821342 0.07907758 0.050150294 -0.026816845
-0.052238066 0.045338754 0.07066884 0.015309994 -0.012896843 -0.0008239073 0.004181461 -0.10493236
-0.07879179 0.113638654 -0.0728978 0.120639175 0.09251401 -0.011580035 -0.04300631 0.01716122
-0.002187585 -0.08383528 0.11799953 -0.012343506 -0.014289368 -0.09562357 -0.018784475 0.0014305311
0.16004191 -0.024430785 0.08026847 0.012602758 0.037460152 0.034450334 -0.031696416 0.070872664
-0.04429311 0.07213578 -0.09109874 -0.086382575 0.12956192 -0.04751007 -0.09222003 -0.09367229
0.13160259 -0.018536417 -0.105312295 -0.026427459 -0.04826318 -0.09456826 -0.06708152 0.102803096
0.061483584 0.07478042 0.009021249 -0.044803675 -0.0730842 -0.08592759 -0.08296466 -0.109229736
0.027552169 0.059704494 0.108252965 -0.008002346 -0.001037492 -0.004164213 0.05999805 -0.028209725
-0.04789844 -0.028058402 -0.118247114 -0.12601967 -0.037329093 0.0022724303 -0.092942424 0.0448395
-0.08617267 0.11593984 -0.1030514 0.048056938 -0.07292561 -0.051240005 -0.127593 -0.10745567
-0.13203791 0.0060763997 0.12141973 0.059966177 0.07150329 0.037511215 -0.0059855753 -0.027549488
-0.05382101 -0.13242073 0.059706822 -0.045215487 -0.036721874 0.025819814 0.0078218365 0.055417746
-0.0983158 0.14083059 -0.06329495 0.054949984 0.09967596 -0.0151095735 -0.11432666 -0.13482192
0.11257076 -0.11440857 -0.057845186 0.10067204 -0.1250874 0.13119334 0.017480893 0.026247768
0.0052376515 0.01536918 0.065788016 -0.11725202 0.038397964 -0.07898395 0.12404299 0.11003025
-0.052827653 0.056447312 -0.029442674 0.070870794 -0.051711116 -0.08069729 0.041330345 0.076196395
0.10811212 0.031866085 -0.061825916 0.105130196 -0.0037623928 0.12536882 0.079679504 0.114579774
0.020353884 -0.08707381 -0.09601046 0.15740852 0.13384748 0.046175513 -0.06521084 0.114141524
0.079650216 -0.11063272 0.034512747 0.118574455 -0.077499755 -0.0011885371 -0.006782981 -0.056887846
0.12691168 0.12470834 0.13408007 -0.1061708 -0.015490176 0.13831684 0.092893556 0.0013908494
00000000: 2b7d ddbd b40e 9dbd d369 dfbd 9ea8 c13b
00000010: b9bd 753d 9b90 0a3c b0a8 423d a35f 7d3c
00000020: 49a5 32bc cb67 e6bd ec4e ef3d 89eb 053e
00000030: f182 8abc 5a11 053d 36f2 013d 7a94 ec3d
00000040: a561 32bc 790b f4bc 2d23 76bd c898 d03c
00000050: 131d a63d c90f d8bd a2bf 323d 1265 133d
00000060: 155a 573d 51fa 693d c6af 2abd 9bd5 ab3c
00000070: 48d5 c2bd 4c14 8d3d ee77 e5bd d412 cebd
00000080: 925a aebd 645e 9fbd d4fe 273b 152e 0a3e
00000090: 15e4 9dbc dd5e cc3d 9c8e c838 45aa e73d
000000a0: 2880 f73d beb6 ad3d 0a86 203d c8c0 5fbd
000000b0: f623 0a3e 76c5 e2bd 4f76 8ebd deff 3dbd
000000c0: 938e bcbc ba03 3e3d 27bd be3c f489 e1bd
000000d0: 8051 013e 20b5 e83d 936e 413c c624 fdbd
000000e0: 1d19 eb3d 7e65 6a3d d387 edbb 8f3b c7bd
000000f0: c7d3 af3d 2753 9abc e022 ddbd e9d7 f93d
00000100: ebd0 0c3d 9054 463d c4f8 8c3d e94c 3c3d
00000110: 786d 1dbd f684 cbbc c5a1 c73d ca17 30bc
00000120: 50a9 eabd 4273 adbd f5e5 d3bd 4d9c c13c
00000130: 7bc9 913d 5712 b13d 993a 1b3d 17d8 023d
00000140: 0a36 94bd 3d89 ea3d f8be 473d 2026 b1bd
00000150: ff36 80bd a2aa f6bd c359 11bd 1bf8 c13d
00000160: 4b62 d53a 97b6 7dbd dcd8 db3c a9bc a6bd
00000170: 8591 aa3c 6df3 a13d 656a 4d3d 00af dbbc
00000180: 95f7 55bd 21b5 393d d3ba 903d c5d6 7a3c
00000190: 484d 53bc 7cfb 57ba a304 893b c7e6 d6bd
000001a0: 975d a1bd 62bb e83d 714b 95bd ac11 f73d
000001b0: fc77 bd3d 30ba 3dbc 6227 30bd b095 8c3c
000001c0: 965d 0fbb d5b1 abbd bda9 f13d 6b3c 4abc
000001d0: f41d 6abc 4ad6 c3bd e6e1 99bc a980 bb3a
000001e0: 07e2 233e 1223 c8bc cc63 a43d cc7b 4e3c
000001f0: d16f 193d cb1b 0d3d 1ad4 01bd b025 913d
00000200: b16c 35bd ecbb 933d fa91 babd 59e9 b0bd
00000210: e1ab 043e eb99 42bd dbdd bcbd 42d7 bfbd
00000220: d4c2 063e afd9 97bc f9ad d7bd 667e d8bc
00000230: 9daf 45bd 01ad c1bd 0962 89bd 6e8a d23d
00000240: 36d6 7b3d 7a26 993d dccd 133c 0f84 37bd
00000250: 2bad 95bd cefa afbd 60e9 a9bd d7b3 dfbd
00000260: 16b5 e13c b38c 743d bbb3 dd3d 461c 03bc
00000270: 74fc 87ba f373 88bb 84c0 753d 1518 e7bc
00000280: 2831 44bd bcda e5bc 8b2b f2bd 4d0b 01be
00000290: 64e6 18bd 0eed 143b 9958 bebd a0a9 373d
000002a0: 4c7b b0bd de71 ed3d 9d0c d3bd 5ad7 443d
000002b0: 065a 95bd 0ae1 51bd bda7 02be b811 dcbd
000002c0: f234 07be 891c c73b e8aa f83d 189f 753d
000002d0: 5170 923d 5ca5 193d a522 c4bb 77af e1bc
000002e0: 6b73 5cbd 4d99 07be 248f 743d e033 39bd
000002f0: ad69 16bd 1384 d33c 2927 003c b8fd 623d
00000300: cb59 c9bd e535 103e c8a0 81bd 3c13 613d
00000310: e922 cc3d 258e 77bc 1924 eabd c20e 0abe
00000320: 808b e63d 0a4f eabd 13ef 6cbd 242d ce3d
00000330: e916 00be 8c57 063e 1734 8f3c 8f05 d73c
00000340: 9ba0 ab3b 03cf 7b3c debb 863d d421 f0bd
00000350: 2f47 1d3d 56c2 a1bd 400a fe3d 8a57 e13d
00000360: cf61 58bd 4c35 673d c331 f1bc b524 913d
00000370: 09cf 53bd 9f44 a5bd 024a 293d db0c 9c3d
00000380: e369 dd3d 0386 023d 2c3d 7dbd 804e d73d
00000390: 7a92 76bb af60 003e 022f a33d cda8 ea3d
000003a0: 30bd a63c c153 b2bd 22a1 c4bd b32f 213e
000003b0: 500f 093e 8922 3d3d 438d 85bd 08c3 e93d
000003c0: a71f a33d 6893 e2bd 3d5d 0d3d 2ad7 f23d
000003d0: 31b8 9ebd b0c8 9bba c543 debb 3b03 69bd
000003e0: 23f5 013e 1667 ff3d 494c 093e 1470 d9bd
000003f0: 82ca 7dbc eea2 0d3e fa3e be3d 294d b63a

network.4.bias f4 [32]
-0.06194948 0.08841565 -0.10326019 -0.10330994 -0.12233371 -0.10267482 0.023537114 -0.07918946
-0.020983046 -0.056902416 -0.04103096 -0.047064953 0.07320194 -0.04732616 -0.06920644 0.06428267
0.122742526 0.10965894 -0.0254912 0.030011667 -0.057313494 -0.01953635 0.006492497 -0.06473366
-0.010155796 0.067406826 0.038618498 0.108108744 -0.04985623 -0.059661232 -0.12551406 0.051855225
00000000: bdbe 7dbd 4413 b53d 147a d3bd 2994 d3bd
00000010: 198a fabd 2d47 d2bd e8d0 c03c 152e a2bd
00000020: a3e4 abbc 8212 69bd 1410 28bd 2ec7 40bd
00000030: e6ea 953d 13d9 41bd 1bbc 8dbd a2a6 833d
00000040: 6f60 fb3d de94 e03d ecd2 d0bc 07db f53c
00000050: 8ec1 6abd b20a a0bc 03bf d43b 1593 84bd
00000060: 7f64 26bc 970c 8a3d 6e2e 1e3d 1e68 dd3d
00000070: 0c36 4cbd 565f 74bd c286 00be 2566 543d

network.6.weight f4 [1, 32]
-0.11668823 -0.1649338 0.024946159 -0.083823375 -0.12615642 0.1077847 -0.117375284 0.082274176
0.14279307 0.10672367 -0.062437948 0.13024004 -0.117263794 0.18496312 -0.02186826 -0.08730956
0.10715963 0.1913746 -0.07061794 0.14083366 0.04728748 -0.14080048 -0.12557128 0.15651166
0.15813363 0.11900858 0.19619408 -0.123448096 -0.11475892 -0.07652183 -0.0830696 -0.081622176
00000000: 3dfa eebd 68e4 28be e35b cc3c 97ab abbd
00000010: 262f 01be 3abe dc3d 7462 f0bd 5d7f a83d
00000020: 5938 123e f191 da3d efbe 7fbd a55d 053e
00000030: 0028 f0bd f966 3d3e 1125 b3bc 5bcf b2bd
00000040: 8276 db3d b4f7 433e 23a0 90bd b336 103e
00000050: 84b0 413d 002e 10be c295 00be 9844 203e
00000060: c8ed 213e c5ba f33d 1ae7 483e 5bd2 fcbd
00000070: ba06 ebbd 7ab7 9cbd 6520 aabd 8729 a7bd
