rbc_nn.pt (torch, 49279 bytes, 7 tensors)

network.0.weight f4 [128, 7]
00000000: 36cc 703e 71d5 c83e ad83 2abe 3844 8f3e
00000010: b644 c5bd d25d 753d 255a 60be 833a 463e
00000020: 996c aa3e 7451 9ebe 19d6 7f3e deae 333d
00000030: 3ed1 833e 118b 343d e806 583e a2fd e6bd
00000040: 8e08 9f3e 3060 e63d 0440 4abe 972c cd3d
00000050: e853 4bbe 32c3 76be df3c 1abe 12cb 543e
00000060: 1b0f 43be 513f f9bd 7520 69bd dd4c 51be
00000070: fea1 2a3d edb2 a7be 8b79 a13e a36f bbbe
00000080: 9aa0 903e 640a 993d 17be bebd be23 6c3e
00000090: b503 cbbc 76a0 fd3d d6aa 093b 5535 2cbe
000000a0: 1bb3 0a3d 131a 62be 683d f63d 7548 be3e
000000b0: 4b0a 2a3e 5a36 68be c9b8 563e 3e6a 733d
000000c0: 3337 323e d972 0cbf 2970 b6be 764c c4be
000000d0: f8d0 bfbd f3e5 9f3e 5da0 e43d e33f 543e
000000e0: 558d 813e b91f 8f3d d741 a53e 7ef1 5fbe
000000f0: e921 013d 6bd2 86be 6e17 103e 19a0 24be
00000100: 4481 3c3e 8c3e ffbc 3d3c b83e 4acd 6dbe
00000110: 8be1 45be 5a76 71be eba6 ab3e 9069 2c3e
00000120: ad03 643e cce5 1fbe 5e53 aabe 0993 a3be
00000130: a76e 90be 3749 483e 8a70 ba3c 1efb b33e
00000140: e2b9 c0bd 61dc afbe 9db4 293e 872e 8ebe
00000150: b3d9 953e 832a ecbd 46cf 8c3e db15 81be
00000160: 6edf 38be a72b e33d 2e45 f43d 5c2e b1bd
00000170: b22b 8b3e a73a 853e cfa6 86be e909 4ebe
00000180: 0929 be3e 22fd 13be 55dd 38be 8839 bbbe
00000190: 47cb 72be 6ef4 dd3d 2b64 04bd 4234 99be
000001a0: 7c3f e93c ccbc c2be 21f9 8bbe d8a2 3ebe
000001b0: 7d77 88be 2e7f 48be 946b c63e def7 223e
000001c0: fd5f 393e ead2 dabe eb15 86be dbce bdbd
000001d0: d93e 703d 804e edbe 4eea 29be afb9 51bd
000001e0: 4380 563d 3cda 0bbe 3740 d3bd 3838 14be
000001f0: 0aec 94be 1d9c 3bbe 58ef 7cbe f20c e4be
00000200: d85e 6f3e 84dd c2bd d347 a23e fd3c 843d
00000210: 548c c4be 64cf 8b3e 6d13 50be 9b26 49be
00000220: 970c 07be b0cd cfbe 5212 173e 088f ecbd
00000230: 4382 5c3e b79a bdbe 0faa a63e ff73 40be
00000240: f3d6 3bbd 19e5 bc3d 6d7a 6d3e 148b 983e
00000250: 67e6 af3e d166 d1be 8c72 a93d 5f93 67be
00000260: 1394 233b a395 bfbe cc8f 563e 2940 b1be
00000270: f600 583e 18a3 433e 4e17 c53d 39bb 63be
00000280: b96d c73e a7ed f3bd 871f ae3d abcb e3be
00000290: 1db5 053e 0740 9abc 0855 10be f019 b83e
000002a0: 0d67 abbd a031 62be 6e55 28bb 5ef1 2d3d
000002b0: 865b 573e 63a8 54bd 32d9 56be f2e3 be3d
000002c0: fe0d bebe cca0 383e 6118 b93e b9ef cebe
000002d0: bc40 793d e469 363e bce6 273d 26f9 2ebe
000002e0: b314 7e3e b6cd 443e 010d 1a3e ed67 75bd
000002f0: 87fe f3bd 6e74 51bd 283c 17be a32a 81be
00000300: 7218 3e3e 33dd a03e c186 a9bd 605a efbd
00000310: 0f8d 1dbd c8f3 95bc af6c b63d 9493 f23d
00000320: d5f5 babe 46d3 1fbe aa6d af3e d010 033e
00000330: ff6a 81bb cac3 76be c85a 10be d397 b2be
00000340: efc2 c9bd fbf8 0c3e 6d3b a03e 5c34 5d3e
00000350: 37d9 c3be 3f5c 8ebe 4779 34bd ad5a bf3e
00000360: 2552 203d a204 1cbc d874 303e 6c4a 41be
00000370: 0f3a 76be aa75 843e 5d72 34be 41b4 d3bd
00000380: 4287 f1be b1b0 b43e 13b4 d33e 8af2 9a3e
00000390: 3e92 34be 0e07 80be f363 73be 7106 a13e
000003a0: 67d5 0e3e eb94 e13e e6df 9e3e 6a5e 9c3d
000003b0: 9d95 d0bb 2293 91be 1a42 bebd f4ed b6be
000003c0: c958 683e e583 49be 84c3 74bd 950c 82be
000003d0: 7a98 02be 656f 61be ca88 64be 5858 393e
000003e0: 37c7 81bd ba02 8e3e 1ab2 8bbd e9bc 86be
000003f0: 5608 85bd 2589 36be 8227 b93c 5900 9fbe
0.235154 0.39225343 -0.16651793 0.27981734 -0.09632246 0.059903927 -0.21909387 0.19358258
0.33285978 -0.3092152 0.24984016 0.04386794 0.25745577 0.044077937 0.21096385 -0.11278845
0.31061214 0.11248815 -0.19750983 0.100182705 -0.19856226 -0.24097899 -0.15062283 0.2078059
-0.19048731 -0.1217028 -0.05691572 -0.20439477 0.041658394 -0.32753697 0.31538042 -0.3660861
0.2824753 0.07472685 -0.093136005 0.2306051 -0.024782041 0.12384121 0.0021006367 -0.1681722
0.033862215 -0.22080259 0.12023431 0.37164655 0.16605489 -0.22676983 0.20968927 0.059427492
0.1740387 -0.54862744 -0.35632446 -0.38339585 -0.093660295 0.31230125 0.11163399 0.20727496
0.2530314 0.069884725 0.32276794 -0.21869466 0.03152648 -0.2633241 0.14071438 -0.16076697
0.18408686 -0.031157754 0.35983458 -0.23222843 -0.19324319 -0.23580304 0.33525786 0.16837144
0.22267027 -0.15615004 -0.3326673 -0.31948116 -0.2820942 0.19559179 0.022758741 0.35152525
-0.09410454 -0.34347823 0.16572805 -0.27769873 0.29267654 -0.11531546 0.27501887 -0.25211987
-0.18053982 0.110923104 0.119272575 -0.086514205 0.27181774 0.2602131 -0.2629914 -0.20120968
0.37140682 -0.14452031 -0.18053181 -0.3656733 -0.23710357 0.10837637 -0.03232209 -0.29922682
0.028472655 -0.38034666 -0.27338508 -0.18616807 -0.26653662 -0.19579765 0.3875395 0.15914866
0.18103023 -0.4273904 -0.26188597 -0.0926797 0.058653686 -0.46348953 -0.16593286 -0.051202472
0.052368414 -0.13657469 -0.103149824 -0.14474571 -0.29086334 -0.18321271 -0.24700677 -0.44541126
0.23376024 -0.09514907 0.31695423 0.06456945 -0.38388312 0.27306664 -0.2031991 -0.19643633
-0.13188396 -0.40586615 0.14753082 -0.115507185 0.21534066 -0.370321 0.3255162 -0.18794249
-0.04585929 0.092233844 0.23191233 0.29793608 0.3435547 -0.40898755 0.08273801 -0.22614811
0.0024960085 -0.3741885 0.20953292 -0.34619263 0.21094117 0.19105184 0.09623586 -0.22239389
0.389509 -0.11910563 0.08502107 -0.44491324 0.1305737 -0.018829359 -0.14094937 0.3595729
-0.08369265 -0.22089243 -0.0025685686 0.042466514 0.21031007 -0.0519184 -0.20981291 0.09320821
-0.3712005 0.18030089 0.36151412 -0.4041727 0.06085275 0.17813832 0.04099153 -0.1708723
0.24812584 0.19219097 0.15044023 -0.059913564 -0.119137816 -0.051136427 -0.14769042 -0.25227842
0.18564013 0.31418762 -0.082776554 -0.116871595 -0.038464602 -0.01830472 0.089074485 0.118445545
-0.3651568 -0.15607938 0.34263355 0.12799382 -0.0039495225 -0.24098125 -0.1409713 -0.34881458
-0.09851634 0.13766854 0.31295338 0.21602005 -0.3825166 -0.27804753 -0.04406097 0.37373868
0.03914084 -0.009522589 0.17232072 -0.18876046 -0.24045585 0.2587102 -0.17621751 -0.10337115
-0.47173506 0.35291055 0.41348323 0.30263168 -0.17633912 -0.25005382 -0.23768596 0.31450227
0.13948594 0.44058928 0.31030196 0.076351956 -0.0063654915 -0.28432566 -0.092899516 -0.3572842
0.22690119 -0.1967922 -0.05975677 -0.25400224 -0.12753478 -0.2201515 -0.22317806 0.18100107
-0.06336825 0.27736455 -0.068210796 -0.26316002 -0.064957306 -0.17825754 0.022601847 -0.31054953

network.0.bias f4 [128]
00000000: 4112 16be e9b7 54be 8eb4 c7bd 7556 12be
00000010: a3ce b43e b1f2 2a3e 9b0d ac3e c211 b538
00000020: be0f dd3d 6467 1c3e a0af c0be 38f2 473c
00000030: 9f9b cabc 9232 71be 5153 89be fc41 ad3e
00000040: fcd9 a93e fc78 883e 278e 973e 23b1 fcbd
00000050: 60d4 6bbd c042 2f3e 9827 b9bd cae7 88bd
00000060: 46c3 9dbe 6662 8e3d 6c37 77be f23a 46bc
00000070: 3abf b53e c1b1 d2bd 179c 04be c9ef 6b3e
00000080: 7732 b5bd f058 cdbc 0e88 cf3e d830 f8bd
00000090: 8480 58be e88a 6abe e49e a1bd 2e3d 46be
000000a0: 0b3f 38be e5ad 353e da28 ad3d a6c6 ccbd
000000b0: 4419 92be 1f56 e2bd cec1 32be 309f 8abd
000000c0: 52f3 a8be 8a9f 7b3d d742 94be 68ff 8dbe
000000d0: b061 8abe a742 233e 35a8 89be e6e8 d7bd
000000e0: b658 853e fc6d 1e3e 2139 5e3e 8f34 8ebe
000000f0: 97f1 8ebe 292e 12be 3ee6 a23e fcdf 063d
00000100: d973 59be ce56 223c b5da 8dbe 83f2 b6bd
00000110: 2af8 c4bd d8b6 793e a73a c83d c590 85bd
00000120: f26c c53d f5e2 713d 20af 1f3e d041 df3d
00000130: 7854 dd3d 4ae3 2fbe 7fb0 a63e 859a 45bd
00000140: 15c4 18be 0fef 863e 2d81 893e f43e b33e
00000150: 940a 453c f3bf 0dbe 95d3 a23d b500 933e
00000160: da75 bcbe 49f6 16bd 5aee 7cbe e0c7 fd3c
00000170: 9227 323e 2402 98bd 38c5 52bd 401e 003e
00000180: fa1c cbbd 5503 b5be a9dc 8f3e 28e8 5cbe
00000190: 05f0 cebc 8f72 0f3d 7ff6 5a3c dae1 a6be
000001a0: 0386 293e 8a5a 45be ba8c 37be e68d 903d
000001b0: c103 82be be2f 25be 2543 b7bd aa36 1abe
000001c0: 85db 1fbe 1f7a cbbd b865 813d d51d b3be
000001d0: 9dd2 6dbe 09ff 943c 33ba 933d 523f 6f3e
000001e0: 6a8d 80be 0f40 053e c3e7 753d d5ed 403e
000001f0: 1a88 b7be e207 82be 3756 b8be 6a22 8abe
-0.14655401 -0.20773281 -0.09751235 -0.14290793 0.353139 0.16694142 0.3360413 8.63406e-05
0.10794018 0.15273815 -0.3763399 0.012203746 -0.024732409 -0.23554447 -0.26821378 0.33839405
0.3317412 0.26654804 0.2960064 -0.12338474 -0.057575583 0.17115307 -0.09040755 -0.06684835
-0.30813044 0.06952362 -0.24142236 -0.012099015 0.35497457 -0.1028781 -0.12950169 0.2304069
-0.08847516 -0.025066823 0.4053349 -0.12118691 -0.21142775 -0.22904551 -0.07891634 -0.19359276
-0.17992799 0.17742117 0.084550574 -0.09998827 -0.285349 -0.110515825 -0.17456743 -0.06768644
-0.3299814 0.061431445 -0.28957245 -0.27733922 -0.27027655 0.15943395 -0.26886144 -0.10542469
0.26044244 0.15471643 0.2170148 -0.27774474 -0.27918693 -0.14275421 0.31816286 0.032928452
-0.21235599 0.009908391 -0.27705923 -0.08932974 -0.09617646 0.24386156 0.09776812 -0.06521753
0.0963992 0.059054334 0.15594149 0.109012246 0.10807127 -0.17176548 0.3255653 -0.048243064
-0.1491855 0.26354262 0.26856366 0.35008967 0.012026448 -0.13842754 0.07950512 0.28711477
-0.36808664 -0.03685597 -0.24700299 0.030979097 0.17397907 -0.07422283 -0.051457614 0.1251154
-0.09917636 -0.35354105 0.28098038 -0.21572936 -0.025260935 0.03502136 0.013364433 -0.32594186
0.16555028 -0.19272819 -0.17924777 0.07058315 -0.2539349 -0.16131493 -0.08948354 -0.15059915
-0.15611084 -0.09935402 0.063182294 -0.34983698 -0.23224874 0.018188016 0.07213249 0.23363999
-0.2510789 0.13012718 0.06003548 0.18840726 -0.35846025 -0.2539664 -0.36003277 -0.2697938

network.2.weight f4 [64, 128]
00000000: 39d6 86bc 9218 4abc f783 763c 6463 27bd
00000010: 2a09 883b 5b9d babd 5123 373d e2a6 faba
00000020: d873 513b 27e6 00be 4f44 913c 1702 7d3d
00000030: 29df ae3d e2a6 a53c 0fb6 7e3c f38d dfbc
00000040: 3015 89ba 09bb 873d 4041 82bc 88a8 d93c
00000050: aedc 4abc 9a9c a1bd f511 4eba c60f b93d
00000060: 6907 013d d942 40be 994b 9d3d 4902 10bc
00000070: 50be 83bd cd40 e3bc 3d02 303e e1da e93b
00000080: 4d4e e7bc b913 bebd 787b 76bb 5c3d 98bd
00000090: 3080 22bd 30ca 783d cb69 073e fca8 e63d
000000a0: 805a 6fbd 95d6 a4bc e132 3ebd b796 2e3e
000000b0: dff3 123d 78d8 543d 6b21 8c3d 951a 903d
000000c0: b5ec dd3b 5ec3 433d d14a f3bc d258 523d
000000d0: 9248 9a3c 9e96 963c 91e8 c4bd 49e8 f9bc
000000e0: d2c7 41bd a66c 21bd 7286 35bd 3ace 8ebd
000000f0: 7e0d 413d ecac c23d 6dce 823d 0262 533c
00000100: 1209 f2bc f341 0abe 3266 483d 4dd6 433d
00000110: a5c6 85bd ffd8 fe3c 75d8 9f3d 49d3 d4bd
00000120: 192c 8f3d 76e9 913d 287c f63c e132 793d
00000130: f823 a1bd cc79 1b3d 3632 88bd 21a3 c13d
00000140: a1be ccbc 216b 8f3d 8bf4 cf3b 5ee1 363c
00000150: d4bb 5cbd 3842 e53d 4564 8f3d 2845 9cbd
00000160: 9e7f 12bd 2f02 0c3e 2fe5 debc 7615 c7bd
00000170: 839f adbc a63a ab3d 6a5a 663d d707 d83b
00000180: bb5a 78bd 94ef 363d ddd1 123c 4257 63bd
00000190: a6a1 e03d 516a 38be 63a8 263d 5eb6 c83d
000001a0: 421a d63d 9cb8 d53c e487 87bd 473f c03d
000001b0: b550 07bd e925 9dbd c6f4 cd3d 69fc 293c
000001c0: 772e 5abd 4830 713d 01fb a1bd 3305 a6bd
000001d0: 4e95 023d be40 a4bc 0751 e9bc 61b6 ebbd
000001e0: 252e 9d3c eca1 5abd 9bb0 3abd 9942 94bd
000001f0: 674c 303d f8a3 fb3c 355b b3bd 802b 0b3e
00000200: 9956 1b3d 6614 4a3d a469 9fbd f660 4f3c
00000210: 76a2 a43d d632 6ebc 135e 80bd f744 013d
00000220: d864 a53c 161b 3f3d c2a9 413d 1a87 683c
00000230: 559b cabd 6661 873d d874 6cbd 7b8a b1bc
00000240: 0c47 fdbd d9fb e9bc bb21 acbc f0d3 c5bc
00000250: dec7 28bd 299e 1cbd b2b6 f33d 4bc4 833d
00000260: a63f 533d f962 88bc 3314 e23d 3db7 f7bd
00000270: 5b25 abbb 9fa3 bb3c 32dd 173c d9fa 3fbd
00000280: b45b 993d 9ad9 bbbc efdf 43be 4a9c 15bc
00000290: 5bd2 413d 2536 d13d 423f 78bd 2a1c 903d
000002a0: 75a9 a03d ddd0 ecbd 0338 a5bd 8de3 02be
000002b0: a1f0 ba3c 25bd 743d 8b65 7fbb 927c b8bc
000002c0: 953f f8bc b238 06bd 5d85 273d f9ab 9e3d
000002d0: bbf0 a3bc 7b5d bbbd 43a2 943b 16b1 21bd
000002e0: 4946 4d3d 174f 883d 4dd3 643d 61ef d03c
000002f0: c5e4 1ab9 cba6 5f3e 64de 1cbd eca9 cb3d
00000300: 7510 863d 5e77 0ebc 47df 1a3d a266 173c
00000310: 9384 a1bd e75f 073b b19e 053d 51b7 9f3c
00000320: f6cc f93d fc9e 1bbd 86cb 963d 62cd f83d
00000330: eefb 7d3b 37eb b7bd 3ec2 203d 32ad c43c
00000340: 5c91 853c d769 3a3d 4c9d 833c 3d48 05bd
00000350: 79cc f4bc b4b7 eb3c e4bd 1fbd ef8c 8c3d
00000360: 743a 51bd 418d 82bc 376b fd3c 546a 81bd
00000370: e679 463d 7820 c13d 6fe7 aa3c 459a 59bc
00000380: 0070 babd daed 23bd 8840 e7bc ffd3 6dbd
00000390: 1b1f bcbc 9b59 77bd a9a3 f6bc a8e3 013e
000003a0: 04f3 a9bd 11b5 db3c 2d12 a23c 37ef d6bd
000003b0: 09b4 1a3d e0f7 763d 92e2 80bd 170b 38bd
000003c0: 24ef 093d 3da7 863d 9dd3 f03d c2b5 ae3d
000003d0: a05b 023d 2cc2 8fbd 930f 94bc 5b88 25bd
000003e0: ca7d 9fbc 66b3 af3d 5f9d 8dbd 3833 8c3d
000003f0: 657a ae3d 404d b63d 91a7 c53d 0615 0e3d
-0.016459571 -0.01233496 0.015046111 -0.04086627 0.004151483 -0.091120444 0.044711415 -0.0019123221
0.0031959917 -0.12587796 0.017732767 0.06176957 0.08538658 0.020221177 0.015546336 -0.027289366
-0.0010458585 0.06627471 -0.015900254 0.02656962 -0.012381716 -0.078911975 -0.0007860952 0.09036212
0.031501208 -0.187755 0.07680435 -0.008789607 -0.064327836 -0.02774086 0.17188354 0.007136688
-0.028235579 -0.092811055 -0.0037610214 -0.07433578 -0.03967303 0.060739696 0.1322395 0.112627
-0.058435917 -0.020121852 -0.04643524 0.1704968 0.035877105 0.051964253 0.068423115 0.0703632
0.0067726024 0.04779374 -0.029698761 0.051354237 0.018833432 0.018382367 -0.09614671 -0.03050627
-0.047309704 -0.039410256 -0.04431767 -0.06972928 0.047132008 0.095056385 0.06387029 0.012901785
-0.02954534 -0.1350172 0.048925586 0.047811795 -0.06532029 0.031109331 0.07804958 -0.10391862
0.06990833 0.07124607 0.0300885 0.060839538 -0.078681886 0.03795795 -0.06650202 0.094549425
-0.024993243 0.07002855 0.0063462905 0.01116213 -0.053890064 0.11194271 0.07001547 -0.07630378
-0.035766236 0.13672708 -0.027208893 -0.0972089 -0.021194225 0.08360796 0.05623857 0.0065927315
-0.060633402 0.044662073 0.008961168 -0.055503137 0.10968332 -0.18009306 0.04068793 0.09800409
0.10454227 0.026089005 -0.06617716 0.09387069 -0.033035953 -0.076732464 0.100564525 0.010375121
-0.05326697 0.058883935 -0.07909203 -0.081064604 0.03188067 -0.020050403 -0.02848102 -0.115093954
0.019187042 -0.053377077 -0.04557858 -0.07239265 0.043041613 0.030717835 -0.08757631 0.13590813
0.037924383 0.04933586 -0.07783821 0.012657395 0.080387995 -0.014538487 -0.06267943 0.03155991
0.020189688 0.04665669 0.047281034 0.014192367 -0.098929085 0.06610374 -0.05772862 -0.021672478
-0.12367067 -0.028562473 -0.021012178 -0.024148911 -0.041206233 -0.03823677 0.11900081 0.06433924
0.05157437 -0.016648756 0.11039009 -0.12095497 -0.005222959 0.022905169 0.009269046 -0.046870086
0.07488194 -0.022930909 -0.19128393 -0.0091315005 0.04731975 0.102154054 -0.060607202 0.07036622
0.07844821 -0.11563275 -0.08067324 -0.12782116 0.022819819 0.059750695 -0.0038970436 -0.022520337
-0.030303756 -0.032768913 0.04089867 0.07747645 -0.02001225 -0.09148689 0.0045359447 -0.039475523
0.050115857 0.0665571 0.055865575 0.02550477 -0.00014771808 0.2184097 -0.038298026 0.099445194
0.06546108 -0.008695452 0.03781059 0.009240778 -0.07886615 0.0020656527 0.032622043 0.019496592
0.12197296 -0.037993416 0.07363038 0.12148549 0.0038754898 -0.089804105 0.039247744 0.024008367
0.016304664 0.045511093 0.016066216 -0.032539595 -0.029882656 0.02877412 -0.038999453 0.068628184
-0.051081136 -0.015936496 0.030934913 -0.063191086 0.048456095 0.09430021 0.02086231 -0.01328141
-0.091033936 -0.040021755 -0.028229013 -0.058063503 -0.022964051 -0.06038819 -0.030107336 0.126845
-0.08298305 0.026819738 0.019784058 -0.10494845 0.03776935 0.060294986 -0.06293215 -0.04493245
0.033675328 0.06574867 0.11759112 0.08530761 0.03182566 -0.07019457 -0.018073833 -0.04041324
-0.01946916 0.085791394 -0.06914782 0.06845707 0.08519439 0.08901453 0.096511014 0.03468802

network.2.bias f4 [64]
00000000: ab8b 383d ba5a 66bd a127 fcbb 392b c43a
00000010: e790 6d3d e7e4 8a3d 75b6 a43d 1cf0 64bd
00000020: 5b36 4fbc 4f55 d83a 3c11 a23d 86ed 963d
00000030: 38b8 cd3c 6e20 8ebd daa2 c6bd 4ca3 2fbd
00000040: f194 a5bd be8e 3abd 69a9 87bd 406a 143d
00000050: f33c 6bbc df43 afbd eaee 513d 0ef4 acbd
00000060: c84a 76bb fde5 e23d c9f2 053d d2fe 95bd
00000070: 95ed 033b 3b74 13bd 9c8f 0f3d 4294 a83d
00000080: 56a0 a03d 3bf6 48bc 5a89 383d 414a 3cbe
00000090: 40a1 ba3d 49a4 e13c 4ca1 62be 3e98 32bd
000000a0: 552b c4bc b61a 43bd b85e 513d 1e80 06be
000000b0: 2d9a 0a3d c320 04bd a8da 073d db9a 4fbd
000000c0: 1931 a0bc 6f72 08bd 2560 3abd e9ac 08bd
000000d0: d969 80bd 4465 95bd ff97 283d 7bce f23c
000000e0: dd69 76bd 68f8 863d d181 d93b a4aa 1dbd
000000f0: d42f e7bc b5b8 0e3b 3806 7d3d 0b97 e1bd
0.045055073 -0.056238867 -0.007695154 0.0014966495 0.057999518 0.06781941 0.080426134 -0.05589305
-0.012647237 0.0016504916 0.079134434 0.07369523 0.025112256 -0.06939779 -0.0969903 -0.04288034
-0.08085049 -0.045546286 -0.06624109 0.03623414 -0.014357793 -0.08557867 0.051253237 -0.08444987
-0.0037581194 0.11079023 0.03270224 -0.07323994 0.0020130624 -0.035999518 0.035049066 0.08231403
0.07843082 -0.012265737 0.045052864 -0.183877 0.09112787 0.027544158 -0.22131842 -0.04360222
-0.023946444 -0.047632895 0.05111572 -0.1313481 0.03383844 -0.032257807 0.03316751 -0.05068479
-0.019554662 -0.033312257 -0.045501847 -0.033368025 -0.06270189 -0.072947055 0.04116058 0.029639473
-0.060159553 0.065903485 0.00663779 -0.038492814 -0.028221048 0.0021777574 0.06177351 -0.11015137

network.4.weight f4 [32, 64]
00000000: 2f37 c0bd b02b 7bbd c3d0 9dbd d013 6bbc
00000010: 4c28 b73d 6440 d0bc 1e34 713d 496d 1e3d
00000020: a605 9dba 8a45 ffbd 7a05 1a3e 27f7 133e
00000030: 18eb aebb b57f e43d 612f 563d 0730 ab3d
00000040: e943 a63c 75d8 14bd 2eaf 53bd 71dd 023d
00000050: bc25 763d 3cb8 e3bd e969 ce3c 219c 663d
00000060: 44c6 903d a4e1 3d3d 1f6b 21bd dc83 6b3c
00000070: cb7b 3dbd 0224 8e3d d44a debd 2b75 debd
00000080: e0cf cabd 28e8 d8bd 930e fdbb ce7a 2d3e
00000090: c077 e13c 25fd bf3d b854 6a3d f636 e33d
000000a0: 0b6e 033e 75b3 0f3e 1fbf 103d cbbe 08bd
000000b0: 3e2e 1a3e b20c a6bd e4a2 453c 9622 27bc
000000c0: f5f4 3cbd 6fef 353d c226 cd3b 63bc 1dbe
000000d0: 751a e93d 98df e63d aead 58ba 27a1 1bbe
000000e0: d993 df3d 248f b83d f863 e23c ec17 f2bd
000000f0: 9e2d 9f3d ff32 d2bc e5b6 c1bd 358c 333e
00000100: bc1f 893d 6a02 4d3d e7f3 c13d 416c 453a
00000110: 1d00 88bc 227d 213b 9ca7 a03d b93a 53bc
00000120: b1a8 d1bd 438e b3bd 7d11 9ebd d9a4 cf3c
00000130: 8e79 c73d 25b5 163e 0297 a23d 4312 bc3c
00000140: c599 32bd 2c73 f63d 2e7f 983d 26da a5bd
00000150: ea8e c3bd 7276 d6bd 1d65 7fbd 6477 e33d
00000160: 9731 f9bb 5255 88bd d40e 233d 87b9 82bd
00000170: 16a0 633d 22a4 b53d 5098 3c3d d0aa 1bbd
00000180: 909b 3abd 2564 773d baac 8f3d 7c32 5e3d
00000190: 0927 b63c 7bd9 b93b 9e4d 873d cd99 12be
000001a0: d5bd b4bd 0a14 223e f0d3 21bd 0cdb 2d3e
000001b0: 6047 b93d 33f7 2a3d ab48 e6bc cf4c 603d
000001c0: 93a1 be3c ad3f b2bd 08e1 0f3e 0a61 3bbc
000001d0: 428c 58bd dc60 c1bd 1356 1fbd c103 42bd
000001e0: 1361 0b3e 9540 83bc 67d9 eb3d e8a6 173d
000001f0: 4467 c73c 1983 5f3d 1cf6 54bc 984b ac3d
00000200: e43e d3bd 5742 373d a3c9 20be f9ee 8f3c
00000210: 4e8b db3d 824a 8c3a 951a 7bbd 6e5c 0fbe
00000220: 333a a33d 3259 97bd e757 39be 4b6b da3c
00000230: 896f 04be fd1e dfbd 23b0 39be d69c 323e
00000240: f1cc 603a 9aa2 d43d 0504 07bb f4c3 8dbd
00000250: 57c5 adbd 7a91 84be c562 063d cf1e 0bbe
00000260: bce5 d43d d653 323e aadb 9e3b 90fa 7ebd
00000270: 27ff c0bd c874 3bbd 5e8b d13c 4f39 523d
00000280: 3010 bdbd 0834 5a3d 7a91 84bb e8df e7bd
00000290: cbde f13b be50 593d 3505 c7bd ad01 b63d
000002a0: 22b8 e8bd 09ef 6cbb 8928 22be 801a da3c
000002b0: c738 05bc a16f 55be fc19 d7bd 12ff 54be
000002c0: 88ee b3bd 4450 29bd e3d0 383e da11 973d
000002d0: b102 7d3d 9b69 043d 0f21 9c3c 6bbe 01bd
000002e0: 79c1 7abd 9322 77be 25a3 c63d df28 06be
000002f0: b930 d83b 4953 f93d 4879 78bd 7e19 ba3d
00000300: a405 94bd ed7e 433e 33f8 bdbd 24da 643d
00000310: cc80 d83d c186 f1bd 1d14 11be 95a9 01be
00000320: 7d15 c83d 3e85 21be 9830 99bd adfc eb3d
00000330: af42 01be 28a2 563e 8f9f 6b3d a2ba 88bc
00000340: a3c5 753c 861e 143d b659 6d3d 6f44 e5bd
00000350: 585d d73c 08c7 65bc e989 c53d 9c29 053e
00000360: f308 25bd 1539 c2bb 88ab b53a 0569 bb3d
00000370: 23c3 58bd d22c 7dbd 84fc 3d3d 1204 843d
00000380: 1d69 cc3d 3095 333d af0e a0bd 0757 2e3e
00000390: f0be a5bd 43d8 413e 5de2 2e3e d21a b03d
000003a0: beea d93c 8c6c 98bd a6cf 0abe 0492 6a3e
000003b0: 063d 053e c9fd 053e 53c5 d93b cea0 133e
000003c0: fb5c ce3d 413f 09be e72f a43d d4c9 b73d
000003d0: bec8 b4bd 1422 76bc f1a1 a8bc b346 ebbd
000003e0: bbec 163e 60e8 093e 7bed 253e f256 50bd
000003f0: a599 eebc ae34 003e 83f2 db3d 918d 673d
-0.093855254 -0.06132096 -0.07705834 -0.014347985 0.08943233 -0.025421329 0.058887593 0.03867844
-0.0011979833 -0.124644354 0.15041152 0.1444975 -0.005338084 0.11157171 0.052291278 0.0835877
0.020296054 -0.036339242 -0.051680736 0.031949464 0.06009458 -0.11119124 0.025196986 0.05630124
0.07069066 0.046357766 -0.0394088 0.014374699 -0.046260636 0.06940462 -0.10854116 -0.10862192
-0.0990293 -0.10591155 -0.0077226846 0.16941378 0.027522922 0.09374455 0.0572097 0.11094467
0.12834947 0.14033301 0.035338517 -0.03338508 0.15056702 -0.0810789 0.012062762 -0.010201117
-0.046132047 0.044417795 0.006260724 -0.15403895 0.113819994 0.11273116 -0.00082656264 -0.15198193
0.109168716 0.09011677 0.02763556 -0.11820969 0.07772373 -0.025659082 -0.094587125 0.17533953
0.06695506 0.05005113 0.09470349 0.00075310847 -0.016601617 0.0024641235 0.07844469 -0.012892419
-0.102372535 -0.08767369 -0.077181794 0.02534716 0.097399816 0.14717539 0.07938959 0.022957927
-0.043603677 0.12033686 0.074461326 -0.08098249 -0.09548743 -0.104718104 -0.06235229 0.11106756
-0.0076047885 -0.066568986 0.039809063 -0.06383043 0.05557259 0.088691965 0.046043694 -0.038004696
-0.045558512 0.06039824 0.07015367 0.054247364 0.02223541 0.0056716776 0.06606601 -0.14316483
-0.0882527 0.15827957 -0.03950876 0.16978091 0.09046817 0.041739654 -0.028110823 0.05476075
0.023270404 -0.087035514 0.14050686 -0.01143671 -0.052868135 -0.094423026 -0.038900446 -0.04736686
0.1361125 -0.016022006 0.115160756 0.03702441 0.024341233 0.054568384 -0.01299813 0.08412856
-0.1031473 0.044741 -0.15701918 0.017570006 0.1071993 0.0010703357 -0.061304647 -0.14000103
0.07970085 -0.073900595 -0.18099938 0.02666249 -0.12933172 -0.108945824 -0.18133597 0.1744264
0.00085754605 0.10382576 -0.002060176 -0.06922141 -0.08484905 -0.2589224 0.032809038 -0.13585971
0.10395381 0.17414793 0.0048479633 -0.062250674 -0.094236664 -0.04576567 0.02557915 0.051324185
-0.09231603 0.053272277 -0.0040456625 -0.113220036 0.0073812953 0.053055517 -0.0971779 0.088870384
-0.113632455 -0.0036153218 -0.15835775 0.026623964 -0.008131213 -0.20843364 -0.10503003 -0.20800427
-0.087857306 -0.041336313 0.18048434 0.07376452 0.061770145 0.032327276 0.019058732 -0.031675737
-0.061219666 -0.24134283 0.09699086 -0.13101529 0.006597605 0.121740885 -0.060662538 0.090868935
-0.07227638 0.19091387 -0.09275856 0.055872098 0.10571441 -0.117932804 -0.14167829 -0.12662347
0.097697236 -0.15773484 -0.07479972 0.115228035 -0.12623094 0.20960295 0.057525214 -0.016690556
0.015000734 0.036161922 0.057946883 -0.11194693 0.026289627 -0.0140245035 0.09645445 0.13004154
-0.040291738 -0.005927215 0.0013860324 0.0915089 -0.052920472 -0.061810322 0.046383396 0.06446089
0.09980986 0.04384345 -0.07815301 0.17025386 -0.08093059 0.18930154 0.17078538 0.085988656
0.026601192 -0.07442579 -0.13555774 0.22907263 0.1301156 0.13085093 0.0066458373 0.14416811
0.10076328 -0.13403036 0.08016949 0.089740425 -0.08827351 -0.015022773 -0.020585032 -0.11488094
0.14738743 0.1346755 0.16203873 -0.050864168 -0.029125998 0.12520096 0.10739615 0.056531493

network.4.bias f4 [32]
00000000: 1294 7ebd 3600 a13d 38bf fdbd 4b7d 01be
00000010: 0443 02be f1c9 dbbd 7ebf 003d c1fc acbd
00000020: fb35 05bd fa2d 73bd 818a 25bd 58e3 73bd
00000030: c605 a63d 834c 38bd 4af7 46bd f4b2 7f3d
00000040: 5abc e93d 2dc7 d93d 878d 0bbd 569e f43c
00000050: dd07 89bd c3dc b3bc 8b65 86ba da4d 8bbd
00000060: 2cd7 82bc 9964 6d3d fa60 363d 875a c93d
00000070: e1b0 36bd e744 71bd dbcd f9bd 6ddb 6a3d
-0.06215293 0.07861368 -0.12389988 -0.12645452 -0.12720877 -0.10731877 0.03143262 -0.084466465
-0.032522183 -0.05937002 -0.04041529 -0.059542984 0.0810657 -0.044994842 -0.048575677 0.062426522
0.11412878 0.10633693 -0.034070518 0.029860657 -0.06690953 -0.021955853 -0.0010253651 -0.068019584
-0.015971743 0.057957266 0.044526078 0.0983172 -0.04460228 -0.0589036 -0.12197467 0.057338167

network.6.weight f4 [1, 32]
00000000: a955 f5bd 22a2 2fbe 65a9 ae3d f237 dcbd
00000010: 3290 00be 71d6 043e bcc6 e3bd 41f6 2a3d
00000020: 6ffc f13d 0119 ec3d 031e 19bd f7e8 043e
00000030: 9ae9 fcbd a4a9 353e 1af5 ce39 3b46 ecbd
00000040: 096d da3d 8299 363e 59c3 a3bd 938f f63d
00000050: bf92 b13c 9f46 09be af4c 18be 513c 0f3e
00000060: 75e6 163e 9bd2 703d 326a 603e c79d 1ebe
00000070: ea54 18be 27a7 92bd 77d4 15bd eac7 25be
-0.11979229 -0.17151693 0.08528403 -0.10752858 -0.12555006 0.12972428 -0.1112189 0.041738752
0.11815726 0.115282066 -0.037382137 0.12979494 -0.123492435 0.17740494 0.00039473997 -0.11536833
0.10665328 0.17831996 -0.07996244 0.12039103 0.02167642 -0.13405846 -0.14873002 0.13987853
0.1473635 0.0587946 0.2191551 -0.15489875 -0.14876142 -0.07160788 -0.036579575 -0.16189542
