full-rbc/rbc_nn.pt (torch, 185397 bytes, 9 tensors)

network.0.weight f4 [256, 7]
00000000: 53b1 a33e fa66 a53e 85cf 83bc 1d82 ce3e
00000010: 869f d2bd 2c2e 2f3d b4da 52be 53cc 743e
00000020: beda 7a3e 4311 eabe 7795 523e 92c3 99bc
00000030: ba2e 1e3e 8349 d6bc e194 703e f9d4 3fbd
00000040: 679c bc3e 13de 1c3e f09e 28be a7a2 fb3d
00000050: 346a 08be e0e6 313e c564 9ebd 4d93 a13e
00000060: 1185 3dbe c6a7 e2bd 08a6 b1bc 288a 79be
00000070: 98c8 7f3d b83d d9be e0e3 b13e c750 99be
00000080: b053 9a3e b9aa ad3d 011e 03be 6fca 7f3e
00000090: eeb3 803d 2abe cd3e 27f2 e43d 2c65 d7bd
000000a0: 46a9 003e 6400 d0bd 3d3e 573e b5a0 743e
000000b0: 3a10 253e cea4 96be e265 193e 0707 6bbc
000000c0: b90f 083e d937 0abf 6fcf 98be e9c6 87be
000000d0: 0ea2 6bbe 725e a73e 4416 f03d 2221 313e
000000e0: 6d02 433e c753 1d3d 7ada cd3e b1c7 36be
000000f0: 4b61 773d ac8a 69be 1d3b 1c3e d468 38bd
00000100: 6258 393e bfcb ab3b f8f4 c03e a447 67be
00000110: 40f4 56be 2be1 59be aa59 b63e 0127 453e
00000120: b291 f23e e6a2 2fbe 3e35 b1be e470 82be
00000130: 300f 61be 5f60 273e 5585 253e 086e 9e3e
00000140: 2d83 3cbe 0c89 77be 7564 693e e31f 07be
00000150: 3d6c 973e bddd ecbd 392b 913e 6fe2 4bbe
00000160: 18a0 38be 8a65 083e f85d d13d 77e0 aabd
00000170: 3c51 883e 07c8 7a3e fbb5 91be dc17 47be
00000180: 33f9 bd3e e0b0 09be ff8b 66bd 8577 9abe
00000190: f6f0 21be 4298 f23d 2319 d9bc 2c9c 58be
000001a0: 2947 363d b0f3 a7be 6a7f b6be b5b9 7ebe
000001b0: c26b a8be 2518 70be 2aab d23e 3a6b a13d
000001c0: d89b 103e ae59 b7be 92f6 7bbe 7de6 dbbd
000001d0: c6cb 953d df31 bebe c795 29be 748e 23be
000001e0: c9ed 7c3d 7c8c 98bd 8585 5f3d 9357 80be
000001f0: 8f2d 67be 2150 68be 1de1 0abd 272c b7be
00000200: 0641 b13e 8e62 b0bd 06b3 a43e 09bb 083e
00000210: 2fd3 aebe 7fbd 613e 4a0b a6bd 9302 19be
00000220: 46df 4dbe cbdf b5be f305 1f3e 689b 08bd
00000230: 56f3 193e 823f abbe 5001 9a3e f266 78be
00000240: 276b 6ebd 1efe b93d 8b29 4b3e c26c 903e
00000250: 5782 b73e 766b b7be a570 393d 95ed 27be
00000260: 09e4 27bd 1309 93be 2f7e 9d3e b7a0 9fbe
00000270: 9e9f 5b3e f891 0d3e 1674 ca3d e015 6ebe
00000280: 2b0c b13e c223 77bc b13a a8bc 8657 f1be
00000290: 14ce 623d 00b0 dfbd 9d7f 81be 2408 8f3e
000002a0: 8eb6 0c3e 951d 30be cfa4 5abe 7aea 143c
000002b0: 2b3b 7d3e a2a8 91bd 9d71 4fbe 5fcc ed3d
000002c0: 7212 9dbe c643 0f3e 0432 b73e 1eea c1be
000002d0: 1cae db3d d3dd 673e 9175 cb3d 7e17 1abe
000002e0: 133e 843e 4459 6c3e a482 163e 1970 79bd
000002f0: c1f4 ccbd a2e7 0dbd a1f1 fcbd dcb8 52be
00000300: 81d3 283e d04f 903e 3425 b5bd ed67 09be
00000310: d22d 163e 0411 403c b9ab 093e 133f 4e3e
00000320: 7db1 b1be f8a8 09be 0f9b af3e 3b94 e13d
00000330: cd2b c1bc 1294 90be 5f5d 9cbe c0d8 a6be
00000340: 6450 10be 3ba7 eb3d f063 373e e48e 393e
00000350: ae9b c8be f9b9 8dbe 5a69 91bd 7a00 b33e
00000360: 3e95 d43c e027 fbbd 8073 133e 2e14 44be
00000370: b6a4 85be 3624 8a3e 302f 2ebe e5aa aebd
00000380: 5626 bfbe b382 ae3e 423a 893e aae6 5d3e
00000390: a732 9dbe 376c d2be 5099 b2be 9aab 9e3e
000003a0: 79cb 323e e7f8 c93e a880 5b3e fd48 aa3d
000003b0: 5382 7abc 8112 97be 587c 97be 4533 afbe
000003c0: bfcf 313e 3dc2 29be 948f 61bd cc0d 53be
000003d0: 6ed0 6cbd 1be7 78be 341b 4dbe ba1c 563e
000003e0: 3b9d 49bd ac25 8f3e baa2 a0bd a610 84be
000003f0: d9e9 3e3c 3899 25be 5a75 dbbd f9ce b2be
0.31971225 0.32305127 -0.016090164 0.40333644 -0.10284333 0.042768642 -0.20591241 0.23906069
0.24497506 -0.45716295 0.20564829 -0.018770013 0.15447512 -0.0261581 0.23494293 -0.046833966
0.36838076 0.1531909 -0.1646688 0.12286883 -0.13321763 0.17373228 -0.07734064 0.31557694
-0.18507792 -0.110671565 -0.021685615 -0.24369109 0.06244716 -0.424299 0.34744167 -0.2994444
0.30141973 0.084798284 -0.12804414 0.24979566 0.06284319 0.40184146 0.111789994 -0.10517344
0.12564573 -0.101563245 0.21019836 0.2388943 0.16119471 -0.2942261 0.14980271 -0.014344937
0.13287248 -0.53991467 -0.2984576 -0.26518944 -0.23011038 0.32689244 0.11722997 0.17297795
0.19043894 0.038409974 0.40205747 -0.17849614 0.06039552 -0.22806805 0.15256925 -0.045021847
0.18100122 0.0052427943 0.37686896 -0.22585922 -0.20991611 -0.21277301 0.35615283 0.1925316
0.47376782 -0.17151985 -0.34610933 -0.25476754 -0.2197845 0.16345356 0.16164143 0.30943322
-0.18409415 -0.24173373 0.22792228 -0.13195758 0.29574767 -0.11565731 0.2835329 -0.19910596
-0.18029821 0.13319984 0.10223001 -0.083435945 0.26624477 0.24490367 -0.28459153 -0.19442695
0.37104186 -0.13446379 -0.056285854 -0.3016931 -0.15814576 0.11845447 -0.026501244 -0.21153325
0.044501457 -0.32803106 -0.35644084 -0.24875529 -0.32894713 -0.2344671 0.41146213 0.0788178
0.1412195 -0.35810608 -0.24605778 -0.107373215 0.07314257 -0.37147424 -0.16561042 -0.1597231
0.061750207 -0.0744867 0.054570694 -0.25066814 -0.22575973 -0.22686817 -0.03390609 -0.35775873
0.3461992 -0.08612548 0.32167834 0.13352598 -0.34145495 0.22044943 -0.08107622 -0.14942388
-0.20104703 -0.35522303 0.15529613 -0.033351332 0.15034232 -0.3344689 0.30079126 -0.2425802
-0.058207657 0.09081672 0.19840066 0.28207976 0.3584163 -0.35824174 0.04527344 -0.16399224
-0.040988956 -0.2871786 0.30760333 -0.31177303 0.21447608 0.13825214 0.09885423 -0.23250532
0.34579596 -0.015084209 -0.020535799 -0.47137088 0.055372313 -0.10922241 -0.25292674 0.27935898
0.13741514 -0.17198785 -0.21351932 0.009089107 0.24729602 -0.07112242 -0.20258184 0.11611246
-0.30678135 0.13990697 0.35780346 -0.3787393 0.10726568 0.22643213 0.099345334 -0.15048024
0.2582861 0.23080927 0.14698273 -0.06089792 -0.100076206 -0.03464473 -0.123507746 -0.20578331
0.16486932 0.28185892 -0.088449866 -0.13418551 0.14665917 0.011722807 0.13444413 0.20141248
-0.34705725 -0.13443363 0.34297988 0.11014601 -0.023580456 -0.2823797 -0.30539986 -0.32587242
-0.14093167 0.11506506 0.17909217 0.18120915 -0.39181274 -0.27680948 -0.07100172 0.349613
0.02595007 -0.12263465 0.14399529 -0.19148323 -0.26102227 0.26980752 -0.17010188 -0.08528689
-0.37333935 0.3408409 0.2680226 0.21670023 -0.30702707 -0.41098186 -0.34882593 0.30990297
0.17460431 0.3944771 0.21435797 0.08314703 -0.015289861 -0.29506305 -0.29587054 -0.34218803
0.17364405 -0.16578002 -0.055068567 -0.20610732 -0.05781596 -0.2430691 -0.20029908 0.20909396
-0.049222212 0.2795843 -0.07843538 -0.25793952 0.011652433 -0.1617173 -0.107157424 -0.34923533

network.0.bias f4 [256]
00000000: 8ccc aebe 54b1 683e adad 4a3c 8ae0 04be
00000010: 3309 04be b9da 8dbe 1aa3 653e fe6b 94bd
00000020: 61f5 36be cdd8 8abe 2c47 883e 501e b8bc
00000030: 0170 9fbc 0844 d6bd 5f9b 1fbe fdef a63d
00000040: ad05 a13e 31e8 47be a677 b43c 37c9 80be
00000050: 8d92 33be 4e5b a73e f539 97bc a2dc 983e
00000060: bb21 e8bc ee54 52be ca44 69be d5b1 953e
00000070: 56ff 8ebe f6d0 483e b84d 923d 6523 d73d
00000080: 840f 4a3e a7a6 ccbd 08e0 863e 93c3 83be
00000090: 662a b5bd ab65 753e c35d e93d f29d 98bd
000000a0: 1565 70bd 566e 45be 18ff 8e3e 9b09 63bb
000000b0: 1e6f dabc 0c71 8f3d 6fea 9b3e 8e83 1fbe
000000c0: 7bb8 09be 86e5 563e 57f7 4d3e b7de 53bd
000000d0: 5ced a4be 4b69 a83d a8bd 2d3e a431 f13d
000000e0: 2834 813e 0c19 85be 544e 3d3e 125d 1bbe
000000f0: b649 0d3e b122 8c3e 6699 e73d 0f82 953e
00000100: e8e1 bcbd 83a5 9fbe 5f7e a5be c904 593e
00000110: 1efc 193e bd17 92be 62e9 cb3d 6ec8 a43e
00000120: 2b99 98be 4127 963e d807 80bd 39a9 c63c
00000130: cdf8 b03e c646 953e e8e9 9e3d f9a9 373e
00000140: 6baa 3d3e ae78 033e 160e 9fbe 754d 3b3d
00000150: 3325 89be a425 cb3d 93b2 7c3d a6e7 1fbb
00000160: 16b4 83be 538f 45be c276 953e 9507 0b3e
00000170: 7083 373e e052 e2bd bec5 93bd 16f0 f6bd
00000180: 4b67 8c3e 1b3b 26be 5157 683e 8ebe 633e
00000190: 1f85 80be fb37 a43c 021f 0dbd cf5d 40be
000001a0: dfec 323e 9f8a a9bd e5c2 a63e ae35 6abe
000001b0: 4cd9 0d3e 69fc 73be c7ac 00be e966 43bc
000001c0: 1a9e 8e3e a701 3f3e c9f7 99be ce97 f93c
000001d0: 7527 80be f25a 5f3d c6e7 4dbe d66d 84bd
000001e0: 031a 8d3e 8e8d abbe 9333 c2be 4c61 843d
000001f0: 2163 533d 190c cabd 9ddf 4a3e 9204 7ebe
00000200: 5a0b 7cbe 337a 36be 5e66 e9bd 0662 7ebd
00000210: e572 553e 4646 df3c 1729 3c3e 6222 86bd
00000220: d5a2 853e 92ec 9c3e f3ed adbe 1e9a e8bd
00000230: 0ac5 9fbe 7ee0 2e3e bbd9 a0be e979 10be
00000240: c485 c63e 0e9b aabe 3b4d 863e d585 383d
00000250: c7bd 8f3e a912 05be fd19 7d3e b65d 303d
00000260: d163 33bc 6d99 773e f434 3cbe 0bbb a1be
00000270: 0262 9d3e 18d8 77be f58f 74be db48 8ebd
00000280: 1dba dcbd 9652 573c add8 7dbe 6f36 773e
00000290: d18e a6be 7e8b 0c3c f1eb 453e 4d5e f53c
000002a0: 6b99 323d 42d0 443d 321e 5d3b 3cde 90bd
000002b0: bf75 4bbe 404d 8fbe 890c 3fbe e99e 643e
000002c0: 07ee 2ebd 8458 f23d ae0d 873e 30cb babc
000002d0: 595a 55be 2182 85be 449b 1fbe 125a 1c3e
000002e0: dcfb a9be 90ab adbc f0c6 f23d c349 6b3e
000002f0: 47a7 f63d e95e 443d f3a6 723e e1df 223e
00000300: b623 ec3d 42cb 15be 4d84 90be aac3 d3bd
00000310: d402 babd 3348 50bc 0fed 82bd 813d 3b3e
00000320: de0c a43e 99eb b5bd 1a13 aabe ff78 38be
00000330: ea09 3ebe d7dc 463e 7d70 27be 3df5 0ebd
00000340: b5d7 67bd d753 80be 2c15 193e 46f5 f3bd
00000350: 2289 a1bc c47f 68be 276c 76bd b156 f43c
00000360: 32a0 e1bd 0718 52be b8b4 a83d c0ac 5bbd
00000370: 103d 8cbe 4343 72be 45fa 35bd 1f26 b6be
00000380: 3663 933e b1ba 18be 2deb 22be 8437 463d
00000390: 506f c83d 1980 bdbd ce09 8c3e 4873 6ebe
000003a0: 8533 a63d 2cfe 853d 0d52 91be 5dac 0bbe
000003b0: 7a2a db3d 20b9 7b3d 766f 8b3e 163b 663e
000003c0: 1657 54be bac2 49be 7ceb 8cbd b9bb 95be
000003d0: c583 0cbe e2be a4be b10b 033e 134e 853e
000003e0: e492 733c a647 bdbe 1a17 a4be ab60 ebbd
000003f0: 7d0b 143d ea6e 843c 75a5 d53d 8894 c33e
-0.34140432 0.22723895 0.012370509 -0.1297628 -0.12894134 -0.27705935 0.224255 -0.072471604
-0.17867042 -0.2711853 0.266168 -0.022475392 -0.019462587 -0.10462195 -0.15586613 0.08151243
0.31449643 -0.19522168 0.02202971 -0.25153515 -0.17536373 0.32686847 -0.018460253 0.2985583
-0.028336396 -0.2054021 -0.22780147 0.29237238 -0.2792918 0.19610962 0.0714373 0.10504798
0.19732481 -0.09992724 0.26342797 -0.2573515 -0.088459775 0.23964565 0.11394837 -0.07452001
-0.05869015 -0.19280371 0.27928996 -0.0034643176 -0.026664313 0.07003984 0.30452296 -0.15577528
-0.1344928 0.20985994 0.20113884 -0.05172607 -0.3221234 0.08223208 0.1696688 0.11777046
0.25235105 -0.25995672 0.18486911 -0.15172222 0.1379765 0.27370217 0.11308555 0.2920079
-0.09222776 -0.31180963 -0.32322976 0.21193232 0.15037581 -0.28533736 0.099566236 0.32184166
-0.29804358 0.29326823 -0.06251496 0.024250614 0.3456482 0.29155558 0.07759458 0.17935933
0.1852204 0.12839004 -0.31065434 0.045728166 -0.26786193 0.09919289 0.06169374 -0.0024399548
-0.25723332 -0.19292955 0.29192168 0.13577111 0.17921233 -0.110509634 -0.07215451 -0.120575115
0.27422556 -0.16233484 0.22689559 0.2224066 -0.25101563 0.020046225 -0.0344534 -0.18785785
0.17473172 -0.08278393 0.32570568 -0.2287204 0.13852423 -0.23826756 -0.1256591 -0.011926391
0.27854997 0.18652974 -0.30071858 0.030467894 -0.25030103 0.05453009 -0.20107946 -0.06466262
0.27558908 -0.33506435 -0.37929973 0.064638704 0.05160821 -0.09865589 0.19811864 -0.24806431
-0.24613705 -0.17820053 -0.11396478 -0.0621052 0.2084461 0.027255189 0.1837505 -0.06549527
0.26100793 0.3064924 -0.33970603 -0.113575205 -0.31205016 0.17077824 -0.31416115 -0.14109005
0.3877393 -0.33321422 0.26230797 0.045049507 0.28074476 -0.129954 0.24716945 0.04305812
-0.010949091 0.24179621 -0.18379575 -0.31588015 0.30738837 -0.24203527 -0.2388304 -0.0694749
-0.10777686 0.013142249 -0.24789687 0.24141859 -0.32530835 0.008578179 0.19328286 0.029952193
0.043603342 0.048050173 0.0033739922 -0.07073638 -0.19869135 -0.27988625 -0.18657126 0.22326244
-0.04270747 0.11833289 0.26377624 -0.022801965 -0.20835246 -0.26075843 -0.15586573 0.15268734
-0.33199966 -0.021199971 0.118543506 0.22977357 0.12043624 0.047942076 0.23696499 0.15905716
0.11530249 -0.14628318 -0.28225937 -0.10340054 -0.09082571 -0.012712526 -0.063928716 0.1828518
0.32041067 -0.08882827 -0.33217698 -0.18014906 -0.1855847 0.19420181 -0.16351505 -0.034901846
-0.0566022 -0.25063965 0.14949483 -0.119120166 -0.01971871 -0.22704989 -0.060161736 0.029826494
-0.11016883 -0.20516978 0.08237594 -0.053631544 -0.27390337 -0.23658471 -0.04442813 -0.3557596
0.2878663 -0.14914967 -0.15910025 0.048392788 0.09786856 -0.09252948 0.2735123 -0.23286164
0.08115295 0.0654262 -0.28382912 -0.1363997 0.10701461 0.061455846 0.27233475 0.22483477
-0.20736346 -0.19703189 -0.068808526 -0.29244784 -0.13722141 -0.32176882 0.12797429 0.26036128
0.014866564 -0.36968726 -0.32048875 -0.11493047 0.03614377 0.01616617 0.10431949 0.38199258

network.2.weight f4 [128, 256]
00000000: 9740 c53c b9e7 b13c 0b2e aabd aca6 cf3c
00000010: 83e8 fbbc e715 bdbd 7942 04bd 4d9e de3c
00000020: e91d 883c 9eef c93c bc89 e5bd 95b6 f1bd
00000030: f575 66bd 6489 11bd aa4c e13c 1122 4abd
00000040: e1b6 993d 523d 913b f691 ebbd 823e 34bd
00000050: 3e45 d3bb 003e 9d3c ec40 39bd 2249 543d
00000060: 6f4e 65bd 53dc b83c 399f d0bc 7cc4 de3b
00000070: 80f6 a93c 4052 a33c 7dff 523d a740 db3d
00000080: 045f 9cbd acb0 49bc bd50 5dbc d09e b0bc
00000090: ced0 263d c4ab 6b3d 7a8d 9c3d 08cb 17bd
000000a0: 8c1f 143d 7cbf 0cbd 5771 243d 7ed8 583d
000000b0: 547c 2a3b 64e7 ce3c 2125 b8bc f85e 19bd
000000c0: b40b 1c3d 63ca 2c3d 8678 91bc 2c07 8bbd
000000d0: 785a 683d 5bf0 0abd b4da e9bc 1230 fcbc
000000e0: 969f 76bc 1624 9e3c fc73 1e3d 4d42 8c3d
000000f0: 5fe3 bf3c 920d a5bb e0da bd3d 65b0 35bc
00000100: ead7 44bc 9963 7e3a 1d9c 433d 0c4a 813c
00000110: ecae 583d 91f0 a93d 39ef d93c a634 f73c
00000120: d9c6 253d 0adc 44bc 9c9d 803d 6ed3 8e3d
00000130: 50e8 26bc 77f4 0cbc f218 1b3d 44ad 19bd
00000140: f966 1f3d 7895 2f3d 11e1 1e3d d1c1 aabc
00000150: 88c0 80bd e551 053e 4b5b 5a3c 9d65 0e3d
00000160: c545 f93c 47be 1ebd 3332 1cbd 41ce 4cbd
00000170: 6ce9 923d b0ba 013c ca59 de3d d9d0 103d
00000180: 4ee7 e53c 48a5 cb3d f7c4 fd3c bfee 64bd
00000190: d6eb 5e3d 14f9 9fbd 8b0d 68bb d8b5 ddbd
000001a0: 02a6 0bbd a242 a1bc 7b0f a83d 3a0d 1236
000001b0: 601c 683d ee36 013d 7a45 14bd 4b15 e1bb
000001c0: 88a9 1cbe 6eb9 bbba ac5c 3e3d 85e9 16bd
000001d0: 760d a33b cf30 09bd 73e8 91bd 2c86 febc
000001e0: 291b 813d a975 4d3c d0a7 733c a220 07bb
000001f0: 6746 0fbe 7392 fabc 3331 b03c 04e0 d8bb
00000200: 96fc b93d 33a8 523c 9c28 d1bc 9939 523d
00000210: 9835 7dbc fd0a fd3b 62db ccbc aa75 41bd
00000220: 99a6 5c3c 9775 e23c 1f83 11bd 5754 5e3d
00000230: 1075 8ebd ef7d 67bd 4a8d ffbc 7795 b8bc
00000240: d4b1 a0bc 25e1 b9bc 7c35 793c ce05 563d
00000250: d6cc b5bc aba5 ceba 1732 da3c 1c08 b33d
00000260: d944 5c3d 67cc 18bd 8ec4 38bd f3a4 00bd
00000270: b65e 0abd a220 ac3c 8e5f b0ba 772d 473d
00000280: 587f 413d b22f 36bd 1e2c 09bc 2db4 393c
00000290: fe12 393a 4e1d 653d a4bf 5bbd 1a13 123d
000002a0: e423 ecbd 7ceb 163a 841a e4bc a18b b63d
000002b0: 9895 273d c868 8a3c 924d b23c 7cf2 7ebc
000002c0: 6621 98bd 2810 bfbc bc7e f53c 74e4 d1bd
000002d0: 4bec f23d eda7 d1bc 5bba 9bbd c5f9 10bd
000002e0: 3b5c 11bc 3ae3 d5bc bdd5 1b3d 59f7 77bd
000002f0: ed6d a03d e9a5 f43d 936b 5cbd e310 12bd
00000300: 179f 93bb 4d9d 983d efd5 823c 8052 46bc
00000310: b50f f93c f451 19bd 7d8b b83c 19b7 8cbd
00000320: 9f38 e43c 96d8 80bc 9d74 4abd cc84 0bbd
00000330: ff5b 06be 5952 7ebd 9f7f c03b fb42 053e
00000340: 0e98 9ebd d774 a63c 0795 8bbd 45c4 39bd
00000350: 1502 e3bd 22c5 873b 58b5 663d 62b2 f2bb
00000360: 9813 0f3d b6bc 00bd 83c3 b3bc 7126 6fbd
00000370: 6859 6d3d dd16 7a3d 2f73 e73b cf94 a13d
00000380: d291 663d a90a c23c 3155 9d3d c488 0ebe
00000390: 0535 a0bd 8911 31bd 2394 383d 5863 243d
000003a0: 09fe 4fbd f6aa dbbc d7e7 83bd 1b6e 473a
000003b0: 2c71 d03b b3a4 aabb 7e83 303d a42b 42bd
000003c0: acad 59bd 54fc 36bd a551 413d 00a8 233c
000003d0: 6984 45bd 6c99 70bc 50e7 343d c968 903c
000003e0: 59ef 863b 80d9 78bc c569 16bd cb02 67bd
000003f0: c4a9 a2bc 45e3 8abc 2b65 98bd 12e2 c6bd
0.02407865 0.02171694 -0.08309563 0.02534803 -0.030750519 -0.09232693 -0.032289956 0.027175093
0.016615825 0.024650391 -0.11207911 -0.11802403 -0.056264836 -0.035531417 0.027502377 -0.049348895
0.075055845 0.004432359 -0.11502449 -0.044004925 -0.0064474633 0.019194603 -0.04522793 0.051827557
-0.055983003 0.022565996 -0.025466548 0.006798325 0.020747423 0.01993668 0.051513184 0.10705691
-0.0763531 -0.012310188 -0.013508019 -0.021560103 0.040726475 0.057536855 0.07644172 -0.03705886
0.036162898 -0.0343623 0.04014715 0.052940838 0.0026014047 0.02525682 -0.022478642 -0.037444085
0.0380971 0.0421852 -0.017757665 -0.06788477 0.056726903 -0.033920627 -0.028546669 -0.03078464
-0.015052697 0.019304316 0.03868483 0.06848583 0.023423849 -0.005037018 0.09270263 -0.011089419
-0.012014369 0.0009704172 0.047756303 0.015782379 0.052901193 0.082978375 0.026603328 0.030176472
0.04047284 -0.012015352 0.062800616 0.06973921 -0.010187224 -0.008603207 0.037865587 -0.037518755
0.03891656 0.042867154 0.03878886 -0.020844372 -0.062867224 0.13019522 0.01332743 0.034764875
0.030428777 -0.03875568 -0.03813381 -0.050001387 0.07173428 0.007918045 0.1085697 0.035355423
0.028064396 0.09943634 0.03097771 -0.05589175 0.05442413 -0.0781118 -0.0035408463 -0.108256996
-0.034093864 -0.019685093 0.08206078 2.1763394e-06 0.056667686 0.031546526 -0.03619907 -0.0068689934
-0.15299046 -0.001432223 0.046475098 -0.036843795 0.00497597 -0.033493813 -0.07124414 -0.031069838
0.063040085 0.012540259 0.014871553 -0.0020618816 -0.139917 -0.03058741 0.021507835 -0.0066185016
0.0908138 0.012857485 -0.02553206 0.05132446 -0.015454672 0.007722257 -0.025006954 -0.047231354
0.013467454 0.027643962 -0.035525437 0.05427965 -0.06955922 -0.056516584 -0.031195302 -0.022532208
-0.019616045 -0.022690365 0.015210506 0.05225163 -0.0221924 -0.0015765926 0.026635213 0.08741781
0.053776596 -0.03730431 -0.045109324 -0.031407308 -0.03378173 0.021011654 -0.0013456212 0.048627343
0.047240585 -0.04447908 -0.008372335 0.011334461 0.000706002 0.05593615 -0.05364956 0.035662748
-0.11530283 0.0005757136 -0.027844675 0.08913351 0.040914148 0.016895667 0.021765504 -0.0155607425
-0.07428245 -0.023323134 0.029967658 -0.10248652 0.118614756 -0.025592769 -0.07603904 -0.03539445
-0.008872087 -0.026109327 0.038045634 -0.060538623 0.07833467 0.11945707 -0.05381353 -0.035660636
-0.004505049 0.07451878 0.015971152 -0.0121046305 0.030402998 -0.037431672 0.02252745 -0.068708606
0.02785903 -0.015728276 -0.049427617 -0.03406219 -0.13121031 -0.06209025 0.0058745886 0.13013832
-0.07743846 0.020319385 -0.06815534 -0.045353193 -0.110843815 0.004143373 0.056325287 -0.007406519
0.034930795 -0.03142997 -0.021943813 -0.05838627 0.057946593 0.06105696 0.0070632915 0.07889711
0.05629141 0.023686724 0.076822646 -0.1391936 -0.07822613 -0.043229613 0.04506315 0.040133804
-0.050779376 -0.026814919 -0.06440704 0.00076076546 0.0063611474 -0.005207622 0.04309415 -0.0474049
-0.053144142 -0.044674233 0.047197003 0.009988785 -0.04822198 -0.014685016 0.04416591 0.01762809
0.004117888 -0.015188575 -0.036721963 -0.056399148 -0.019856341 -0.016954074 -0.07441171 -0.09711088

network.2.bias f4 [128]
00000000: 6b64 e9bc f04a 65bd a6af d33c 9de6 cbbc
00000010: d75f 99bc 488c 24bd 18dd 88bc 54ee 223d
00000020: b41f d73c ca90 f8bc a902 373d 2d7a 70bd
00000030: fb59 a7bc c66c 65bd a150 f3bd 5c1d 89bd
00000040: aca5 093d c8d0 8fbc 290f 133c 1eed 09bd
00000050: 38bc 763d acb9 7d3d 3372 3f3d 4c89 80bd
00000060: 6c15 7cbd 2615 35bd a055 cf3c ee39 1a3d
00000070: 83b9 123d 8414 50bd afa9 113d c75f 35bd
00000080: 8428 74bd 5e9b 18bd 0796 f83c 0e0e 41bd
00000090: c6a2 493d 2372 143d 7962 e03c 3612 a4bd
000000a0: 3378 48bc ea84 84bd 77e4 e6bc 2bcd 393c
000000b0: 1a63 cfbb 42a6 7a3d 8eaf 5e3d 2715 5bbc
000000c0: 03b3 b6bb 5e0b 2e3d 1347 2e3b 781d 46bc
000000d0: 95dc 3f3d 53f6 45bd c043 17bd 0f54 6dbc
000000e0: 76f7 793d afca 8bbd ee28 63bd 399c 28bd
000000f0: 8a6e 24bd b8bc 41bd e359 56bd 1bf1 abbb
00000100: 3817 273d 438f aa3c 0d8e 2b3b 37cc 5c3d
00000110: f817 9cbc b205 ef3c 3ba7 f73b 3871 40bd
00000120: e07b 5c3d bf15 f63b a407 80bc 29ac 203d
00000130: 3396 0c3d 7350 9f3c aef3 0fbd 4ee6 cbbb
00000140: b1b8 63bd b1d4 b3bc 8573 e1bc 7b52 6e3c
00000150: 5e02 65ba 9a37 ca3c e86c a9bd 4129 21bc
00000160: 7966 b2bc 1415 693d 6439 d0bc 5221 f33c
00000170: 6f13 123c 563f 323d 952b 60bd 69c6 ab3d
00000180: 304a c6bc 69f6 40bd 823f 5ebd 41c1 c53b
00000190: 9e9a 9bbc 803c cbbc 2b42 3dbc 13d7 b13b
000001a0: 7088 f2bc e64f 37bc 01b4 2a3d f145 93bd
000001b0: 4dca f6bc eba6 8a3c 2502 e7bc 1882 c336
000001c0: 19f4 8b3c 6e59 e9bc 33cb 4bbd 4d93 cc3b
000001d0: edc8 8b3d 7d5f 2dbd 5e97 00ba 6b03 a1bc
000001e0: 2cd4 0fbd d84e 0b3d 0020 ebbc 521b 5e3c
000001f0: f65d 92bc e195 77bc 4660 90bd b005 cbbd
-0.028490266 -0.05597967 0.025840592 -0.024890238 -0.018722458 -0.040172845 -0.016706988 0.03977807
0.026260234 -0.030342478 0.04468027 -0.058710266 -0.020428648 -0.056011938 -0.11880613 -0.06695053
0.033605263 -0.01755561 0.008975782 -0.0336734 0.060238093 0.06194465 0.04673977 -0.06276187
-0.061543867 -0.04420962 0.025309384 0.037652902 0.03582145 -0.050800815 0.035562214 -0.044280794
-0.05960895 -0.037257545 0.030344976 -0.047132544 0.0492275 0.03624166 0.027390705 -0.08011286
-0.012235689 -0.06470664 -0.028185112 0.01134042 -0.0063289525 0.061193712 0.05436664 -0.013371742
-0.005575539 0.04249131 0.0026592657 -0.012091987 0.046841223 -0.048330616 -0.036929846 -0.014485373
0.061027013 -0.06825768 -0.055458955 -0.04116461 -0.04014448 -0.047299117 -0.052331816 -0.005247248
0.040793628 0.020820266 0.0026177198 0.053905692 -0.019054398 0.02917752 0.007557777 -0.046982974
0.053829074 0.0075099166 -0.015628643 0.039226685 0.03432293 0.01944754 -0.0351445 -0.006222523
-0.055596057 -0.021952005 -0.027520904 0.014546032 -0.00087360095 0.024684716 -0.08272725 -0.009836496
-0.021777378 0.056904867 -0.025417991 0.029678974 0.008915766 0.043517433 -0.054729063 0.08387453
-0.024205297 -0.047109995 -0.054259785 0.0060350006 -0.018994626 -0.024809122 -0.01155142 0.00542725
-0.029606074 -0.011188483 0.04167557 -0.07191075 -0.030125761 0.016925296 -0.028199265 5.8265978e-06
0.017084168 -0.028485026 -0.049754333 0.0062431456 0.06825433 -0.042327393 -0.0004905368 -0.01965495
-0.035114452 0.034010738 -0.028701782 0.013556318 -0.01786707 -0.0151114175 -0.07049613 -0.09913194

network.4.weight f4 [64, 128]
00000000: 4022 663d 8087 4f3d e305 cebc 8886 073d
00000010: 3c52 d13c 440d bcbb 03dd 2b3d d0bf 013d
00000020: 31e3 7ebd ac42 fa3c bbfa c13c f337 9cbd
00000030: 5f6d 943d 66c0 b4bd 2f2f 433c 8fd9 7ebc
00000040: 2887 27bc 3404 9f3c 4b61 33bc 1c1b 873d
00000050: 3d43 61bc cb84 e8bc 200a 82bd 54f2 ce3d
00000060: fb5a d8bc 6bc5 03be 06cc 90bc 71fe 6abd
00000070: 65fe fcbc d818 8c3d d258 383d c04e 46bd
00000080: d6ff 0c3d e849 13bc 5987 b6bc b179 903d
00000090: e2a1 813d 725e cb3d ec81 1fbd 1d55 e5ba
000000a0: e5cf 9bbd 9453 a0bc 95d5 973d 0dcc 373c
000000b0: 8667 9dbd d304 04bd d287 1e3d 9c84 55bd
000000c0: 6d29 b93d e751 e1bb c953 e23c 80b2 14bd
000000d0: 3793 5d3d cfcf b33d 625e 7dbd eb10 753d
000000e0: 1210 4a3d 6e3e 1cbb e051 9ebd 02f0 a83c
000000f0: f730 b33c bcf5 dc3d f6bb a5bd b305 ea3d
00000100: d135 dfbd 3fd9 76bd 4c30 2b3c e3d0 14bd
00000110: 8377 d8bb cce6 7abd 66ce a9bc 5ea8 7ebd
00000120: 6bc9 72bc 5a24 cc3d 5eaa 6dbd 3ff9 d4bd
00000130: bc54 a63d 5753 bf3d d667 64bc 5344 5cbd
00000140: 0f7d bdbd 256d 87bc 146e 17bd 1928 f5bc
00000150: 8a40 a3bd f8cc 653c e5fe b73d 09d9 aebd
00000160: a88c 16be 7de6 2a3e d8b0 bd3b ed0a cebc
00000170: 1213 573d 9186 323c e58f f1bc 6d2d 6ebc
00000180: 25b5 a83c 538d 81bd 4749 f83a 1867 053c
00000190: 818e 923d 706a 313d 9e5f 6b3d ed68 083e
000001a0: 6798 dfbc 8556 6b3d ccf2 cfbd 2001 243d
000001b0: ba50 813d 68ab b2bc bea9 dcbc 3953 973c
000001c0: 6876 b03b 53a3 e4bc 4d01 59bb 43da 91bd
000001d0: e699 bf3c 908e 913c e073 f63d de4b 3ebd
000001e0: 5e96 c93c abb5 a6bd 6c1e d3bd 9bf6 803d
000001f0: c2b0 efba 5273 8ebd bea1 d7bb c5d1 38bd
00000200: a88b aebc 569f 833c b7ab f5bc 4eec 4f3c
00000210: 8252 763d 091a c2bc 6c17 78bd 7142 04bd
00000220: 3a93 423d 5b81 a2bd d762 7cbd 9c1e c4bc
00000230: 25ae 9c3d b2ea 80bd 8f42 1dbd 67d9 063d
00000240: 75a6 ef3b 8c95 b8bc a55d 713d f965 113d
00000250: ed47 a23d 4e77 b1bc b5ce 1cbb f4d1 123e
00000260: 3106 32bd dc2a 133d a283 3f3d 250b 6bbd
00000270: 6965 0dbd 1fcb 95bd 4891 3bbb e89d 5e3c
00000280: 49bb 293d 3b69 b23d 866f bbbb b91f 99bd
00000290: daaa 803d 18e0 f0bc f6da 073b c487 3ebc
000002a0: dbfc 2e3d d221 05bd df2a 60bc db3c 80bc
000002b0: 6ffc b23c 57ad eabb 55e0 a3bc a2c7 9bbc
000002c0: 62ce acbd 0b2a f4bb 952f 2e3d 4425 cbbd
000002d0: 5197 133d d077 18bd 9a1b 3c3c db78 8cbd
000002e0: 3576 b33c 8c7f 253d b358 50bd 29a4 573d
000002f0: 1176 91bc e2c7 453c 8df3 0bbe 4ffc 36bc
00000300: c6b6 9d3c b3fe 4bbd 4f71 5f3d 097a fe3c
00000310: d265 7c3b 94f9 403d 3a11 9abc ea7b 813c
00000320: 10bd 8a3d cc5c aebd 3245 d03c f43a 2a3d
00000330: ebbe edbc e99c 93bd 6fbb dbbc 9a61 ba3c
00000340: 3ea7 65bd 768f 913d 7a67 8a3d 2214 58bd
00000350: d1be 43bd 06c7 873a 144e 86bd 9d3f 5a3d
00000360: dc09 4ebc 1bbb 86bc a444 5cbd de7c 013d
00000370: b93f afbd a9bf 14bd 935f ce3a f181 03bb
00000380: 12e2 f8bd 3a48 053b 9175 073e fcc6 40bd
00000390: 9f01 fc3d ea9b afbc 1b77 9ebd 4af8 2a3d
000003a0: 3459 fb3c 10fc 063d dc1a 84bd 859d 60bc
000003b0: 9aa1 35bd a3db 97bd 69bc 7a3d f549 55bd
000003c0: 4527 323d 1ee6 e93c a75d 123d a5e4 24bd
000003d0: 6dc9 16bd b2b7 19bd 8ebc fdbc d3df 033d
000003e0: 62e6 4fbc ff6c 883d dbaf e13c 7966 a93d
000003f0: d39f 5a3c c19f 33bc 6748 ab3d 8192 f4bb
0.056185007 0.050666332 -0.025149291 0.033087283 0.025551908 -0.005738886 0.04195882 0.031677067
-0.062228385 0.03054937 0.023679128 -0.07627859 0.072474234 -0.088257596 0.011913105 -0.0155548
-0.010225095 0.019411184 -0.010948489 0.065969676 -0.013748941 -0.028383633 -0.063495874 0.10104814
-0.02641057 -0.12868278 -0.017675411 -0.05737156 -0.030883024 0.06840676 0.04500658 -0.048414946
0.03442367 -0.008989789 -0.022281336 0.07054461 0.06329705 0.099301234 -0.038942263 -0.0017496679
-0.07608012 -0.019571103 0.074137844 0.011218083 -0.07685761 -0.032231163 0.038703747 -0.05212842
0.090411045 -0.0068762186 0.027627843 -0.036303043 0.054095473 0.08779871 -0.06185759 0.059830587
0.049331732 -0.0023840922 -0.0773046 0.020622257 0.021873934 0.107890576 -0.08092491 0.11426868
-0.108989365 -0.060265776 0.010448527 -0.036332022 -0.006606044 -0.06125526 -0.020728301 -0.062172286
-0.01481853 0.09967871 -0.058023803 -0.103991024 0.081216305 0.09342068 -0.013940772 -0.053776097
-0.09252369 -0.016531536 -0.036970213 -0.029926347 -0.07971294 0.014025919 0.08984164 -0.0853749
-0.14702094 0.16689487 0.0057889037 -0.025151694 0.05250842 0.010896341 -0.02948756 -0.014537198
0.020594189 -0.063257836 0.0018942737 0.008142255 0.07156087 0.043314397 0.057464235 0.13321276
-0.02729435 0.05745556 -0.10153732 0.040040135 0.063142255 -0.021810248 -0.026936408 0.0184723
0.005385209 -0.02790991 -0.0033112348 -0.07121708 0.023388814 0.017768174 0.1203382 -0.04645907
0.024607833 -0.08140119 -0.10308537 0.06297036 -0.0018286931 -0.06955589 -0.0065805605 -0.045121927
-0.021306828 0.016067188 -0.029989107 0.012690617 0.06013728 -0.023694055 -0.06056921 -0.032289926
0.047503687 -0.07934829 -0.0616177 -0.023940377 0.07650403 -0.062947646 -0.038393553 0.032922175
0.0073135444 -0.022532247 0.058927197 0.03549764 0.07923875 -0.021663334 -0.0023926918 0.14337903
-0.043462936 0.035929546 0.046756394 -0.057383675 -0.03452054 -0.07314133 -0.002862053 0.0135874525
0.041438375 0.08711477 -0.0057200817 -0.07476754 0.06282587 -0.029403731 0.0020729876 -0.011629049
0.04272161 -0.032502957 -0.013682096 -0.015654018 0.021848885 -0.007161777 -0.02000443 -0.01901609
-0.08437802 -0.007451301 0.042525847 -0.09919217 0.03603298 -0.037223637 0.01148119 -0.06858989
0.021906951 0.04040484 -0.05086584 0.05264679 -0.017756494 0.012071582 -0.13667126 -0.0111685535
0.019252192 -0.049803447 0.05455142 0.03106405 0.0038512838 0.047113016 -0.018807042 0.015806157
0.06774342 -0.08513793 0.02542362 0.04156013 -0.0290217 -0.072076626 -0.026822774 0.022751618
-0.056067698 0.07107441 0.06758018 -0.052753575 -0.0477894 0.0010358996 -0.06557861 0.053283323
-0.012575593 -0.01644664 -0.0537764 0.031613223 -0.08557076 -0.036315594 0.0015745036 -0.0020066465
-0.121524945 0.002033724 0.13228442 -0.047064766 0.12304997 -0.02143665 -0.07737561 0.041740693
0.030682184 0.03295523 -0.064504355 -0.013709431 -0.04434357 -0.07414939 0.06121484 -0.052072484
0.04349448 0.028552111 0.035733845 -0.040257115 -0.03681319 -0.0375287 -0.030973699 0.032195877
-0.012689205 0.06661414 0.027549675 0.08271498 0.013343769 -0.010963381 0.08363419 -0.0074637537

network.4.bias f4 [64]
00000000: f34e bebc 489f 84bc 871f e2bd e5c1 783d
00000010: cb81 093c 9ec4 b1bd fb60 993d 5c99 73bd
00000020: 0bed 9b3d c31c debb b033 433d 1499 93bd
00000030: 1a9c 853d b108 163c 7c7b 90bd 8280 b0bd
00000040: 95d4 2abc 0571 9e3d bff8 b6bd 16b9 efbc
00000050: 4a68 ed3c f286 b0bd 3322 8abd 4d83 bdba
00000060: 7763 97bd 0f7d 23bd fa2a 9dbd 1bf5 dabc
00000070: c151 aabd ab12 47bd e29d c8bd b572 4ebd
00000080: 965f c4bd 7d13 6dbd 4cb3 18bc 5411 f03c
00000090: cb2d ccbb 1a9c ddbc 1d4a b3bd 1855 1f3d
000000a0: e040 02bc ef7e 6ebc 2eb4 a33d 4354 8f3c
000000b0: fb7d 7dbb 6a23 fbbc 8f16 3ebb 4fa9 a4bd
000000c0: 6f0c b53d 0510 8cbd 5571 8e3d 0111 6c3d
000000d0: b4e0 4a3d 01e2 b43d e6d3 82bd 1791 373c
000000e0: 0bf0 fc3c dcf0 a2bd 063d bbbd 320d 7f3c
000000f0: 7dc4 863d 6fdf 1a3d 7e36 1c3d 718b 743d
-0.023231005 -0.016189232 -0.110411696 0.060731787 0.008392761 -0.0868008 0.07489201 -0.059472427
0.07613572 -0.006778331 0.047656715 -0.07206932 0.06523915 0.009157346 -0.07054803 -0.08618261
-0.01042666 0.077364005 -0.08934163 -0.02926306 0.028980393 -0.08619489 -0.06744804 -0.0014458686
-0.07392018 -0.039914187 -0.07674213 -0.026728204 -0.083163746 -0.048601788 -0.09795739 -0.050402362
-0.09588544 -0.057879914 -0.009320091 0.029305138 -0.006231045 -0.027051974 -0.0875437 0.03889951
-0.007950038 -0.0145566305 0.07993351 0.017496234 -0.0038679827 -0.030656535 -0.0029005145 -0.080401056
0.08840262 -0.06838993 0.0695521 0.057633404 0.0495307 0.08832169 -0.06388073 0.011204026
0.03087618 -0.079560965 -0.09142499 0.015567111 0.06580446 0.03781074 0.038137905 0.059703294

network.6.weight f4 [32, 64]
00000000: 9887 a13d 3547 e3bc 4da2 b9bd 6a00 3c3d
00000010: 35bc 52bd 7af2 0e3d 1bdc c03b 6ac8 703d
00000020: 3e03 81bc 3d51 c13b 6c1e cdbc 3531 493d
00000030: 2e71 4cbd f09b 923d ed40 cc3d d7d7 4d3d
00000040: 0864 52bb e057 dbbc bb4e e03b d5dd b1bd
00000050: bec0 d4bc b9d3 65bd 79d0 69bc 7bf1 6dbd
00000060: 0539 d1bc e514 5e3d 88f2 963c 088a 68bd
00000070: d4d8 bfbd 1153 d13c e338 b33d cf8f 15be
00000080: 7707 ff3d 074d 203d 4852 a33d c1ba ec3c
00000090: 8697 e3bc bb3f 903d 50f6 c0bb 63ad 85bc
000000a0: 4348 533c b88c 78bd 86a6 3c3d 41a3 42bd
000000b0: 6542 353d b0be fabc 3d6b d5bd ccdf d8bd
000000c0: 8690 6e3d 7517 ef3d 5e28 e83d 60c4 943d
000000d0: bbf7 70bd 8417 76bc db88 1abd 0a7f 573d
000000e0: d33a 2b3e 1f99 f83c 5d7a 743d 8b18 02bd
000000f0: 2f28 d9bd 04fd 24bd 944e 6fbd ae5a 5d3d
00000100: 8b78 d93d 3b93 843c e395 163e c586 0c3d
00000110: eedc 0dbd 1e74 133e c57c c2bd 6ff7 7a3d
00000120: 162d 9bbd ae0e 603d 7c20 663c 80d1 b639
00000130: ba96 4ebc d367 ccbd 7977 7fbc a27c ca3d
00000140: 4f40 1f3d e8cf c6bc daa9 fd3d cac0 c73c
00000150: 2c24 6c3d 8c73 613d 3685 cfbc 0f87 34bd
00000160: 531f a5bd 25fe d33c 4a34 fe3d 1f5a 06be
00000170: 7549 063e 8bdc 293d 4b6e 8b3d 820a 213d
00000180: 3db3 913d a0cb ac3d 29ee 623c 4487 f7bc
00000190: 743f dcbd 82fd ca3d 5665 333d aaf8 cbbb
000001a0: 7d96 513d 5ec1 bebc 850e f2bd 84fd d33d
000001b0: aa9f c5bd 5957 73bd 7f29 cdbd cb73 153e
000001c0: 6b45 26bc e884 243d d5c8 03bc 4335 923d
000001d0: 37bf 0d3e bbd9 833d b97f 113d 4104 903d
000001e0: 38eb b03d 5422 e7bd 644f 52bc 55c9 e93d
000001f0: 147a f2bd f14a 22bd 7ca0 12bd 6add 753d
00000200: 6f41 cdbd df32 db3b edf3 a2bd b4ce a23d
00000210: 3ec6 9ebd 83d2 9d3d 9887 85bd 8578 a8bc
00000220: d88a adbb de22 9abc 8c3e bbbd 7125 f1bd
00000230: fc21 92bd 56dc 83bd 093c 983d 2dfe 483d
00000240: d776 9abc 27de 70bd 1ba9 d83d 6ac8 c7bd
00000250: 546a c43d 6243 73bc dfaf b5bd fc26 383d
00000260: cea6 b03d 3d6f 423d ada6 aebc 4abc acbd
00000270: 920d b13c 90b5 0339 e81e d33c 64e9 c6bd
00000280: db68 153d 8c91 35bc 05ae 843d a897 c3bd
00000290: a741 8dbd bbef 7a3d 708a 77bd ecce 713d
000002a0: 6b7f 91bd 0e11 3b3d f56c 0e3d cf7b 033e
000002b0: b157 523d 1150 fa3c f934 27bd 36bd 473d
000002c0: 9815 863d 78cd b4bd 0c6e 05be 925a 2ebd
000002d0: 4e6d d8bd 97e1 313c 6a06 763d 16bc e63d
000002e0: 1a85 043e 518d 04be 3ec8 fd3d b8c0 d4bd
000002f0: 9eab d0bd f5b0 b6bc 6992 683d 8188 21bd
00000300: 2f32 67bc 2452 93bc 9a3b 00bd e2d3 23bd
00000310: 0f04 a03d b6af f23c aa10 f8bc ddb2 e33c
00000320: ee70 9c3d 4bd0 ecbc 4bc9 1ebc 5167 d33d
00000330: ae34 8ebc 90fd a33d 4ffd ea3d 9bf4 e7bd
00000340: 16f0 f5bd 1f65 bcbd 4476 c5ba 983c ad3d
00000350: 1425 963d c0ef 03bd b756 e33c 2a0a c03d
00000360: 3cdf 29bd 0651 843d c9c3 babc 6e3f 6c3d
00000370: 93e2 46bd 1dab 9e3c 6a29 723d 8ff4 15bd
00000380: 5ed5 84bc e687 eebd e85b cbbd 1c02 88bd
00000390: a59e babd 8cb1 463b 0ae0 013e 5e07 023d
000003a0: c309 a8bd cc20 5fbc b4bb 80bd 3258 a5bd
000003b0: e71f a2bd cc70 c93d d698 70bd 56e3 85bd
000003c0: bac5 b3bc f5e4 643c 58e5 cc3d dacf 763d
000003d0: 4ce4 943d db00 bfbd 0ac7 ed3c 7566 16be
000003e0: e6ea 8ebd 9a8b b0bd ae17 95b5 3839 c43d
000003f0: ef0d ffbd b99d 92bd 4601 8a3d 0dac cbbd
0.078871906 -0.027743915 -0.090641595 0.045898832 -0.05144902 0.034899212 0.0058856136 0.05878488
-0.015748616 0.005899577 -0.02503892 0.049119193 -0.049912624 0.07158649 0.09973321 0.05025467
-0.003210308 -0.0267753 0.006845323 -0.08684889 -0.025970813 -0.056110118 -0.014270895 -0.05809162
-0.025539884 0.054219145 0.018426195 -0.05677226 -0.093675286 0.025552304 0.08751085 -0.1460564
0.12452596 0.03913596 0.07974678 0.028897645 -0.027782213 0.070434056 -0.0058887377 -0.016318029
0.0128956465 -0.060681075 0.046057247 -0.047518972 0.044252772 -0.030608505 -0.10420845 -0.10589561
0.058243297 0.11674396 0.113358244 0.07264018 -0.058830004 -0.015020255 -0.03772817 0.05261139
0.16721658 0.030346451 0.059687007 -0.031761687 -0.106033675 -0.040280357 -0.058424547 0.054041557
0.10618695 0.016183486 0.14705615 0.034308214 -0.034634523 0.14399764 -0.09496454 0.061271127
-0.07576959 0.0547015 0.014045831 0.00034869835 -0.012609178 -0.099807404 -0.015592449 0.09887053
0.03887969 -0.02426906 0.12385912 0.024383921 0.057651684 0.055041835 -0.025332075 -0.044074114
-0.08062615 0.025878021 0.12412317 -0.13120316 0.13113959 0.04147009 0.06808146 0.03931666
0.07114265 0.08437276 0.013850727 -0.030215867 -0.1075429 0.09911634 0.043797813 -0.0062247114
0.051168907 -0.023285564 -0.11819176 0.10351089 -0.09649594 -0.059409473 -0.100176804 0.14594953
-0.0101483865 0.04016581 -0.008043488 0.07139065 0.13842474 0.06438013 0.035522196 0.07032061
0.086386144 -0.112858444 -0.012836311 0.11415354 -0.11839691 -0.03962225 -0.03579758 0.06002561
-0.10022246 0.006689414 -0.079566814 0.07949582 -0.077526554 0.077061675 -0.06520003 -0.02056528
-0.0052960925 -0.018815454 -0.09142789 -0.117747195 -0.07135388 -0.0643851 0.07433326 0.049070526
-0.018855495 -0.05880561 0.10579129 -0.09755023 0.09590593 -0.014847608 -0.088714354 0.044959053
0.086255655 0.047469366 -0.021319712 -0.08434351 0.021612916 0.00012560771 0.025771573 -0.097124845
0.03647695 -0.011082064 0.06478504 -0.095504105 -0.06897288 0.06126378 -0.06043476 0.059035227
-0.07104381 0.04567056 0.03477188 0.12840198 0.05135316 0.030555757 -0.040822003 0.04876443
0.065470874 -0.088282526 -0.13030261 -0.042566843 -0.10567723 0.0108570075 0.06006471 0.11266343
0.12941399 -0.12944533 0.12391709 -0.10388321 -0.101889834 -0.022301177 0.056780253 -0.03943682
-0.014111086 -0.017983504 -0.03130684 -0.03999699 0.07813274 0.029624801 -0.030281384 0.02779525
0.07638727 -0.028907916 -0.009691547 0.103224404 -0.017359104 0.080073476 0.11474096 -0.11325952
-0.120086834 -0.09198975 -0.0015065153 0.08458823 0.07331291 -0.032211065 0.02775131 0.09376939
-0.04147266 0.064607665 -0.022798436 0.05767768 -0.04855592 0.019368703 0.059121527 -0.036610182
-0.016215023 -0.11647014 -0.09929639 -0.06641027 -0.0911229 0.0030318229 0.1268312 0.031745307
-0.08204987 -0.013618659 -0.062858015 -0.080734625 -0.07916241 0.098359674 -0.058739506 -0.065375015
-0.02194487 0.013970603 0.10004681 0.060256816 0.07270107 -0.09326335 0.029025573 -0.14687522
-0.06978397 -0.08620377 -1.1108257e-06 0.09581226 -0.124538295 -0.071589895 0.06738524 -0.099449255

network.6.bias f4 [32]
00000000: ff8e 3a3d 77cc 8bbc b30e a5bd 5f5b 933c
00000010: 71e5 a5bd 3bdd e2bd dc24 893d 46b7 e13c
00000020: 3da6 1e3d 3423 dc3d 7274 173c 672d a73d
00000030: d1b9 b8bc daca 16bd a825 e8bd 81ce 5fbc
00000040: 818e 51bd 508e 1a3d df53 553d 76b6 d0bd
00000050: 2f61 b2bd 1ebe 4c3d cff0 87bd c873 8c3c
00000060: b65b e73d 556b f0bd 9ba0 2cbd 89ff fabd
00000070: adef 23bd 713f 1d3d 5f0a 24bd 0480 8bbc
0.045546528 -0.01706527 -0.08059444 0.017987905 -0.08100403 -0.110773526 0.066964835 0.027553212
0.038732756 0.10748902 0.009244071 0.08162957 -0.022549542 -0.036814548 -0.11335307 -0.013660074
-0.051161293 0.037733376 0.05208194 -0.10191052 -0.087099425 0.049985997 -0.066377275 0.017145053
0.11296789 -0.11739222 -0.042145353 -0.12255771 -0.040023495 0.03839058 -0.040048953 -0.017028816

network.8.weight f4 [1, 32]
00000000: 3ff9 43ba 5b17 a9bd 332c 14bc 93a8 8a3d
00000010: 2754 32be 2d80 6e3c 09a9 003e 4aaa 6c3d
00000020: 721f 02be 0d84 4f3a d70b 20be 1134 913d
00000030: bf5e febd f3db 8eb9 20fc 2b3d e305 1cbe
00000040: f611 0b3e 9b76 cd3b 2612 69bd 7be5 5c3d
00000050: 0e62 b6bd b5de ea3c cbd7 b13d 8173 4c3c
00000060: fd22 83bd 97d2 80bd 97f5 df3d ae9c 2e3d
00000070: 43ff c7bb 1ae2 09be dbc3 4bbd 8423 803a
-0.00074758 -0.08256408 -0.009043741 0.06770434 -0.17414914 0.014556927 0.12564482 0.057779588
-0.12707308 0.00079161004 -0.15629517 0.07090009 -0.12420415 -0.00027248226 0.041988492 -0.1523662
0.1358107 0.0062702424 -0.056902073 0.053929787 -0.08905421 0.028670648 0.08683737 0.01247871
-0.06403158 -0.06290167 0.109355144 0.04262989 -0.0061034276 -0.13465157 -0.04974733 0.000977621
